2024-11-23 16:27:15.239432: I external/tsl/tsl/platform/cloud/gcs_file_system.cc:307] GCS RetryConfig: init_delay_time_us = 1000000 ; max_delay_time_us = 32000000 ; max_retries = 10
2024-11-23 16:27:15.239511: I external/tsl/tsl/platform/cloud/gcs_file_system.cc:857] GCS cache max size = 171798691840 ; block size = 536870912 ; max staleness = 0
2024-11-23 16:27:15.239517: I external/tsl/tsl/platform/cloud/ram_file_block_cache.h:64] GCS file block cache is enabled
2024-11-23 16:27:15.239521: I external/tsl/tsl/platform/cloud/gcs_file_system.cc:897] GCS DNS cache is disabled, because GCS_RESOLVE_REFRESH_SECS = 0 (or is not set)
2024-11-23 16:27:15.239525: I external/tsl/tsl/platform/cloud/gcs_file_system.cc:927] GCS additional header DISABLED. No environment variable set.
2024-11-23 16:27:15.239529: I external/tsl/tsl/platform/cloud/gcs_file_system.cc:307] GCS RetryConfig: init_delay_time_us = 1000000 ; max_delay_time_us = 32000000 ; max_retries = 10
2024-11-23 16:27:18.617156: I torch_xla/csrc/runtime/pjrt_registry.cc:71] Registering PjRt plugin NEURON
2024-11-23 16:27:18.617223: I torch_xla/csrc/runtime/pjrt_registry.cc:71] Registering PjRt plugin TPU
2024-11-23 16:27:18.617245: I torch_xla/csrc/runtime/pjrt_registry.cc:71] Registering PjRt plugin XPU
WARNING:root:Defaulting to PJRT_DEVICE=CPU
2024-11-23 16:27:18.623143: I torch_xla/csrc/runtime/pjrt_registry.cc:129] Initializing PjRt CPU client...
2024-11-23 16:27:18.624605: I external/xla/xla/parse_flags_from_env.cc:204] For env var XLA_FLAGS found arguments:
2024-11-23 16:27:18.624632: I external/xla/xla/parse_flags_from_env.cc:206]   argv[0] = <argv[0]>
2024-11-23 16:27:18.624636: I external/xla/xla/parse_flags_from_env.cc:206]   argv[1] = --xla_dump_to=/tmp/dir_name
2024-11-23 16:27:18.624639: I external/xla/xla/parse_flags_from_env.cc:206]   argv[2] = --xla_cpu_enable_fast_math=false
2024-11-23 16:27:18.624642: I external/xla/xla/parse_flags_from_env.cc:206]   argv[3] = --xla_gpu_force_compilation_parallelism=8
2024-11-23 16:27:18.627518: I external/xla/xla/pjrt/cpu/cpu_client.cc:472] TfrtCpuClient created.
2024-11-23 16:27:18.632697: I external/xla/xla/shape_util.cc:1024] Validating shape size: f32[3,3]
2024-11-23 16:27:18.632756: I external/xla/xla/shape_util.cc:1040] Shape size is valid: 36
2024-11-23 16:27:18.633292: I external/xla/xla/service/shape_inference.cc:3505] Reshape inferred shape: f32[1,1]
2024-11-23 16:27:18.633334: I external/xla/xla/shape.cc:234] CompareShapes: lhs dimensions != rhs dimensions
2024-11-23 16:27:18.633359: I external/xla/xla/shape_util.cc:183] ShapeUtil::Equal differ: lhs = element_type: F32 dimensions: 1 dimensions: 1 layout { minor_to_major: 1 minor_to_major: 0 tail_padding_alignment_in_elements: 1 } is_dynamic_dimension: false is_dynamic_dimension: false, rhs = element_type: F32 dimensions: 3 dimensions: 3 layout { minor_to_major: 1 minor_to_major: 0 tail_padding_alignment_in_elements: 1 } is_dynamic_dimension: false is_dynamic_dimension: false
2024-11-23 16:27:18.634367: I external/xla/xla/shape_util.cc:1024] Validating shape size: f32[3,3]
2024-11-23 16:27:18.634389: I external/xla/xla/shape_util.cc:1040] Shape size is valid: 36
2024-11-23 16:27:18.634793: I external/xla/xla/pjrt/cpu/cpu_client.cc:952] TfrtCpuClient::BufferFromHostBuffer: shape: f32[3,3] device: TFRT_CPU_0
2024-11-23 16:27:18.636541: I torch_xla/csrc/tensor.cpp:369] Assign IR value: [UNKNOWN_SCALAR[]] xla::device_data, location=<module>@lzy.py:7, xla_shape=f32[3,3]{1,0}, dynamic_dims: (), device=CPU:0
2024-11-23 16:27:18.636676: I external/xla/xla/shape_util.cc:1024] Validating shape size: f32[3,8]
2024-11-23 16:27:18.636683: I external/xla/xla/shape_util.cc:1040] Shape size is valid: 96
2024-11-23 16:27:18.636730: I external/xla/xla/service/shape_inference.cc:3505] Reshape inferred shape: f32[1,1]
2024-11-23 16:27:18.636744: I external/xla/xla/shape.cc:234] CompareShapes: lhs dimensions != rhs dimensions
2024-11-23 16:27:18.636770: I external/xla/xla/shape_util.cc:183] ShapeUtil::Equal differ: lhs = element_type: F32 dimensions: 1 dimensions: 1 layout { minor_to_major: 1 minor_to_major: 0 tail_padding_alignment_in_elements: 1 } is_dynamic_dimension: false is_dynamic_dimension: false, rhs = element_type: F32 dimensions: 3 dimensions: 8 layout { minor_to_major: 1 minor_to_major: 0 tail_padding_alignment_in_elements: 1 } is_dynamic_dimension: false is_dynamic_dimension: false
2024-11-23 16:27:18.637134: I external/xla/xla/shape_util.cc:1024] Validating shape size: f32[3,8]
2024-11-23 16:27:18.637150: I external/xla/xla/shape_util.cc:1040] Shape size is valid: 96
2024-11-23 16:27:18.637193: I external/xla/xla/pjrt/cpu/cpu_client.cc:952] TfrtCpuClient::BufferFromHostBuffer: shape: f32[3,8] device: TFRT_CPU_0
2024-11-23 16:27:18.637232: I torch_xla/csrc/tensor.cpp:369] Assign IR value: [UNKNOWN_SCALAR[]] xla::device_data, location=<module>@lzy.py:8, xla_shape=f32[3,8]{1,0}, dynamic_dims: (), device=CPU:0
2024-11-23 16:27:18.638576: I external/xla/xla/service/shape_inference.cc:972] inferred dot shape: f32[3,8]
2024-11-23 16:27:18.639328: I external/xla/xla/service/shape_inference.cc:1296] inferring shape for <multiply>(f32[3,8]{1,0}, f32[]) with broadcast_dimensions={}
2024-11-23 16:27:18.639351: I external/xla/xla/shape.cc:224] CompareShapes: lhs rank != rhs rank
2024-11-23 16:27:18.639365: I external/xla/xla/service/shape_inference.cc:1296] inferring shape for <add>(f32[3,8]{1,0}, f32[3,8]{1,0}) with broadcast_dimensions={}
2024-11-23 16:27:18.639958: I torch_xla/csrc/xla_graph_executor.cpp:422] 3 live tensors: devices=()
2024-11-23 16:27:18.639965: I torch_xla/csrc/xla_graph_executor.cpp:400] Trying to sync the value of 3 tensor(s)
2024-11-23 16:27:18.639984: I torch_xla/csrc/xla_graph_executor.cpp:714] Tensors graph hash 189805d4d363aa87afcfdefe0ef5335a on device CPU:0
2024-11-23 16:27:18.640008: I external/xla/xla/shape_util.cc:1024] Validating shape size: f32[3,8]
2024-11-23 16:27:18.640011: I external/xla/xla/shape_util.cc:1040] Shape size is valid: 96
2024-11-23 16:27:18.640019: I torch_xla/csrc/tensor.cpp:369] Assign IR value: empty node
2024-11-23 16:27:18.640032: I torch_xla/csrc/xla_graph_executor.cpp:1522] Parameter sequence graph hash b937997174adb2fe4e42edacf94b91f3
2024-11-23 16:27:18.640441: I external/xla/xla/service/shape_inference.cc:972] inferred dot shape: f32[3,8]
2024-11-23 16:27:18.640484: I external/xla/xla/service/shape_inference.cc:1296] inferring shape for <multiply>(f32[3,8]{1,0}, f32[]) with broadcast_dimensions={}
2024-11-23 16:27:18.640489: I external/xla/xla/shape.cc:224] CompareShapes: lhs rank != rhs rank
2024-11-23 16:27:18.640679: I external/xla/xla/service/shape_inference.cc:1296] inferring shape for <add>(f32[3,8]{1,0}, f32[3,8]{1,0}) with broadcast_dimensions={}
2024-11-23 16:27:18.641607: I external/xla/xla/shape_util.cc:1024] Validating shape size: f32[3,8]
2024-11-23 16:27:18.641631: I external/xla/xla/shape_util.cc:1040] Shape size is valid: 96

Compilation Analysis: ================================================================================
Compilation Analysis: Compilation Cause
Compilation Analysis:   user mark_step
Compilation Analysis: Graph Info: 
Compilation Analysis:   Graph Hash: b937997174adb2fe4e42edacf94b91f3
Compilation Analysis:   Number of Graph Inputs: 2
Compilation Analysis:   Number of Graph Outputs: 1
Compilation Analysis: Python Frame Triggered Execution: 
Compilation Analysis:   mark_step (/usr/local/lib/python3.10/dist-packages/torch_xla/core/xla_model.py:1046)
Compilation Analysis:   <module> (/root/xla/lzy.py:16)
Compilation Analysis: --------------------------------------------------------------------------------
Compilation Analysis: ================================================================================
2024-11-23 16:27:18.641663: I torch_xla/csrc/xla_graph_executor.cpp:1426] Compiling IR graph hash b937997174adb2fe4e42edacf94b91f3 on device CPU:0 ...
2024-11-23 16:27:18.722775: I external/xla/xla/hlo/ir/hlo_module.cc:558] CreateFromProto()
2024-11-23 16:27:18.729061: I external/xla/xla/hlo/ir/hlo_module.cc:559] name: "SyncTensorsGraph.10"
2024-11-23 16:27:18.729111: I external/xla/xla/hlo/ir/hlo_module.cc:559] entry_computation_name: "SyncTensorsGraph.10"
2024-11-23 16:27:18.729358: I external/xla/xla/hlo/ir/hlo_module.cc:559] computations {
2024-11-23 16:27:18.729369: I external/xla/xla/hlo/ir/hlo_module.cc:559]   name: "SyncTensorsGraph.10"
2024-11-23 16:27:18.729373: I external/xla/xla/hlo/ir/hlo_module.cc:559]   instructions {
2024-11-23 16:27:18.729375: I external/xla/xla/hlo/ir/hlo_module.cc:559]     name: "constant.1"
2024-11-23 16:27:18.729378: I external/xla/xla/hlo/ir/hlo_module.cc:559]     opcode: "constant"
2024-11-23 16:27:18.729381: I external/xla/xla/hlo/ir/hlo_module.cc:559]     shape {
2024-11-23 16:27:18.729384: I external/xla/xla/hlo/ir/hlo_module.cc:559]       element_type: F32
2024-11-23 16:27:18.729387: I external/xla/xla/hlo/ir/hlo_module.cc:559]       layout {
2024-11-23 16:27:18.729389: I external/xla/xla/hlo/ir/hlo_module.cc:559]         tail_padding_alignment_in_elements: 1
2024-11-23 16:27:18.729392: I external/xla/xla/hlo/ir/hlo_module.cc:559]       }
2024-11-23 16:27:18.729395: I external/xla/xla/hlo/ir/hlo_module.cc:559]     }
2024-11-23 16:27:18.729398: I external/xla/xla/hlo/ir/hlo_module.cc:559]     metadata {
2024-11-23 16:27:18.729401: I external/xla/xla/hlo/ir/hlo_module.cc:559]       op_type: "prim__Constant"
2024-11-23 16:27:18.729403: I external/xla/xla/hlo/ir/hlo_module.cc:559]       op_name: "prim__Constant"
2024-11-23 16:27:18.729406: I external/xla/xla/hlo/ir/hlo_module.cc:559]       source_file: "/root/xla/lzy.py"
2024-11-23 16:27:18.729409: I external/xla/xla/hlo/ir/hlo_module.cc:559]       source_line: 13
2024-11-23 16:27:18.729412: I external/xla/xla/hlo/ir/hlo_module.cc:559]       stack_frame_id: 1
2024-11-23 16:27:18.729414: I external/xla/xla/hlo/ir/hlo_module.cc:559]     }
2024-11-23 16:27:18.729417: I external/xla/xla/hlo/ir/hlo_module.cc:559]     literal {
2024-11-23 16:27:18.729420: I external/xla/xla/hlo/ir/hlo_module.cc:559]       shape {
2024-11-23 16:27:18.729423: I external/xla/xla/hlo/ir/hlo_module.cc:559]         element_type: F32
2024-11-23 16:27:18.729426: I external/xla/xla/hlo/ir/hlo_module.cc:559]         layout {
2024-11-23 16:27:18.729428: I external/xla/xla/hlo/ir/hlo_module.cc:559]           tail_padding_alignment_in_elements: 1
2024-11-23 16:27:18.729431: I external/xla/xla/hlo/ir/hlo_module.cc:559]         }
2024-11-23 16:27:18.729434: I external/xla/xla/hlo/ir/hlo_module.cc:559]       }
2024-11-23 16:27:18.729437: I external/xla/xla/hlo/ir/hlo_module.cc:559]       f32s: 1
2024-11-23 16:27:18.729440: I external/xla/xla/hlo/ir/hlo_module.cc:559]     }
2024-11-23 16:27:18.729442: I external/xla/xla/hlo/ir/hlo_module.cc:559]     id: 1
2024-11-23 16:27:18.729445: I external/xla/xla/hlo/ir/hlo_module.cc:559]     frontend_attributes {
2024-11-23 16:27:18.729448: I external/xla/xla/hlo/ir/hlo_module.cc:559]     }
2024-11-23 16:27:18.729451: I external/xla/xla/hlo/ir/hlo_module.cc:559]   }
2024-11-23 16:27:18.729454: I external/xla/xla/hlo/ir/hlo_module.cc:559]   instructions {
2024-11-23 16:27:18.729456: I external/xla/xla/hlo/ir/hlo_module.cc:559]     name: "p0.2"
2024-11-23 16:27:18.729459: I external/xla/xla/hlo/ir/hlo_module.cc:559]     opcode: "parameter"
2024-11-23 16:27:18.729462: I external/xla/xla/hlo/ir/hlo_module.cc:559]     shape {
2024-11-23 16:27:18.729465: I external/xla/xla/hlo/ir/hlo_module.cc:559]       element_type: F32
2024-11-23 16:27:18.729468: I external/xla/xla/hlo/ir/hlo_module.cc:559]       dimensions: 3
2024-11-23 16:27:18.729470: I external/xla/xla/hlo/ir/hlo_module.cc:559]       dimensions: 8
2024-11-23 16:27:18.729473: I external/xla/xla/hlo/ir/hlo_module.cc:559]       layout {
2024-11-23 16:27:18.729476: I external/xla/xla/hlo/ir/hlo_module.cc:559]         minor_to_major: 1
2024-11-23 16:27:18.729479: I external/xla/xla/hlo/ir/hlo_module.cc:559]         minor_to_major: 0
2024-11-23 16:27:18.729481: I external/xla/xla/hlo/ir/hlo_module.cc:559]         tail_padding_alignment_in_elements: 1
2024-11-23 16:27:18.729484: I external/xla/xla/hlo/ir/hlo_module.cc:559]       }
2024-11-23 16:27:18.729487: I external/xla/xla/hlo/ir/hlo_module.cc:559]       is_dynamic_dimension: false
2024-11-23 16:27:18.729643: I external/xla/xla/hlo/ir/hlo_module.cc:559]       is_dynamic_dimension: false
2024-11-23 16:27:18.729651: I external/xla/xla/hlo/ir/hlo_module.cc:559]     }
2024-11-23 16:27:18.729655: I external/xla/xla/hlo/ir/hlo_module.cc:559]     metadata {
2024-11-23 16:27:18.729659: I external/xla/xla/hlo/ir/hlo_module.cc:559]       op_type: "xla__device_data"
2024-11-23 16:27:18.729663: I external/xla/xla/hlo/ir/hlo_module.cc:559]       op_name: "xla__device_data"
2024-11-23 16:27:18.729666: I external/xla/xla/hlo/ir/hlo_module.cc:559]       source_file: "/root/xla/lzy.py"
2024-11-23 16:27:18.729670: I external/xla/xla/hlo/ir/hlo_module.cc:559]       source_line: 8
2024-11-23 16:27:18.729674: I external/xla/xla/hlo/ir/hlo_module.cc:559]       stack_frame_id: 2
2024-11-23 16:27:18.729678: I external/xla/xla/hlo/ir/hlo_module.cc:559]     }
2024-11-23 16:27:18.729681: I external/xla/xla/hlo/ir/hlo_module.cc:559]     id: 2
2024-11-23 16:27:18.729684: I external/xla/xla/hlo/ir/hlo_module.cc:559]     frontend_attributes {
2024-11-23 16:27:18.729687: I external/xla/xla/hlo/ir/hlo_module.cc:559]     }
2024-11-23 16:27:18.729690: I external/xla/xla/hlo/ir/hlo_module.cc:559]   }
2024-11-23 16:27:18.729692: I external/xla/xla/hlo/ir/hlo_module.cc:559]   instructions {
2024-11-23 16:27:18.729695: I external/xla/xla/hlo/ir/hlo_module.cc:559]     name: "p1.3"
2024-11-23 16:27:18.729698: I external/xla/xla/hlo/ir/hlo_module.cc:559]     opcode: "parameter"
2024-11-23 16:27:18.729701: I external/xla/xla/hlo/ir/hlo_module.cc:559]     shape {
2024-11-23 16:27:18.729703: I external/xla/xla/hlo/ir/hlo_module.cc:559]       element_type: F32
2024-11-23 16:27:18.729706: I external/xla/xla/hlo/ir/hlo_module.cc:559]       dimensions: 3
2024-11-23 16:27:18.729709: I external/xla/xla/hlo/ir/hlo_module.cc:559]       dimensions: 3
2024-11-23 16:27:18.729712: I external/xla/xla/hlo/ir/hlo_module.cc:559]       layout {
2024-11-23 16:27:18.729714: I external/xla/xla/hlo/ir/hlo_module.cc:559]         minor_to_major: 1
2024-11-23 16:27:18.729717: I external/xla/xla/hlo/ir/hlo_module.cc:559]         minor_to_major: 0
2024-11-23 16:27:18.729720: I external/xla/xla/hlo/ir/hlo_module.cc:559]         tail_padding_alignment_in_elements: 1
2024-11-23 16:27:18.729723: I external/xla/xla/hlo/ir/hlo_module.cc:559]       }
2024-11-23 16:27:18.729725: I external/xla/xla/hlo/ir/hlo_module.cc:559]       is_dynamic_dimension: false
2024-11-23 16:27:18.729728: I external/xla/xla/hlo/ir/hlo_module.cc:559]       is_dynamic_dimension: false
2024-11-23 16:27:18.729731: I external/xla/xla/hlo/ir/hlo_module.cc:559]     }
2024-11-23 16:27:18.729734: I external/xla/xla/hlo/ir/hlo_module.cc:559]     metadata {
2024-11-23 16:27:18.729736: I external/xla/xla/hlo/ir/hlo_module.cc:559]       op_type: "xla__device_data"
2024-11-23 16:27:18.729739: I external/xla/xla/hlo/ir/hlo_module.cc:559]       op_name: "xla__device_data"
2024-11-23 16:27:18.729742: I external/xla/xla/hlo/ir/hlo_module.cc:559]       source_file: "/root/xla/lzy.py"
2024-11-23 16:27:18.729745: I external/xla/xla/hlo/ir/hlo_module.cc:559]       source_line: 7
2024-11-23 16:27:18.729747: I external/xla/xla/hlo/ir/hlo_module.cc:559]       stack_frame_id: 3
2024-11-23 16:27:18.729750: I external/xla/xla/hlo/ir/hlo_module.cc:559]     }
2024-11-23 16:27:18.729753: I external/xla/xla/hlo/ir/hlo_module.cc:559]     parameter_number: 1
2024-11-23 16:27:18.729756: I external/xla/xla/hlo/ir/hlo_module.cc:559]     id: 3
2024-11-23 16:27:18.729758: I external/xla/xla/hlo/ir/hlo_module.cc:559]     frontend_attributes {
2024-11-23 16:27:18.729761: I external/xla/xla/hlo/ir/hlo_module.cc:559]     }
2024-11-23 16:27:18.729764: I external/xla/xla/hlo/ir/hlo_module.cc:559]   }
2024-11-23 16:27:18.729767: I external/xla/xla/hlo/ir/hlo_module.cc:559]   instructions {
2024-11-23 16:27:18.729770: I external/xla/xla/hlo/ir/hlo_module.cc:559]     name: "dot.4"
2024-11-23 16:27:18.729772: I external/xla/xla/hlo/ir/hlo_module.cc:559]     opcode: "dot"
2024-11-23 16:27:18.729775: I external/xla/xla/hlo/ir/hlo_module.cc:559]     shape {
2024-11-23 16:27:18.729985: I external/xla/xla/hlo/ir/hlo_module.cc:559]       element_type: F32
2024-11-23 16:27:18.729994: I external/xla/xla/hlo/ir/hlo_module.cc:559]       dimensions: 3
2024-11-23 16:27:18.729998: I external/xla/xla/hlo/ir/hlo_module.cc:559]       dimensions: 8
2024-11-23 16:27:18.730003: I external/xla/xla/hlo/ir/hlo_module.cc:559]       layout {
2024-11-23 16:27:18.730007: I external/xla/xla/hlo/ir/hlo_module.cc:559]         minor_to_major: 1
2024-11-23 16:27:18.730012: I external/xla/xla/hlo/ir/hlo_module.cc:559]         minor_to_major: 0
2024-11-23 16:27:18.730016: I external/xla/xla/hlo/ir/hlo_module.cc:559]         tail_padding_alignment_in_elements: 1
2024-11-23 16:27:18.730021: I external/xla/xla/hlo/ir/hlo_module.cc:559]       }
2024-11-23 16:27:18.730025: I external/xla/xla/hlo/ir/hlo_module.cc:559]       is_dynamic_dimension: false
2024-11-23 16:27:18.730029: I external/xla/xla/hlo/ir/hlo_module.cc:559]       is_dynamic_dimension: false
2024-11-23 16:27:18.730033: I external/xla/xla/hlo/ir/hlo_module.cc:559]     }
2024-11-23 16:27:18.730037: I external/xla/xla/hlo/ir/hlo_module.cc:559]     metadata {
2024-11-23 16:27:18.730042: I external/xla/xla/hlo/ir/hlo_module.cc:559]       op_type: "aten__einsum"
2024-11-23 16:27:18.730045: I external/xla/xla/hlo/ir/hlo_module.cc:559]       op_name: "aten__einsum"
2024-11-23 16:27:18.730050: I external/xla/xla/hlo/ir/hlo_module.cc:559]       source_file: "/usr/local/lib/python3.10/dist-packages/torch/functional.py"
2024-11-23 16:27:18.730054: I external/xla/xla/hlo/ir/hlo_module.cc:559]       source_line: 402
2024-11-23 16:27:18.730058: I external/xla/xla/hlo/ir/hlo_module.cc:559]       stack_frame_id: 5
2024-11-23 16:27:18.730062: I external/xla/xla/hlo/ir/hlo_module.cc:559]     }
2024-11-23 16:27:18.730066: I external/xla/xla/hlo/ir/hlo_module.cc:559]     dot_dimension_numbers {
2024-11-23 16:27:18.730071: I external/xla/xla/hlo/ir/hlo_module.cc:559]       lhs_contracting_dimensions: 1
2024-11-23 16:27:18.730075: I external/xla/xla/hlo/ir/hlo_module.cc:559]       rhs_contracting_dimensions: 0
2024-11-23 16:27:18.730078: I external/xla/xla/hlo/ir/hlo_module.cc:559]     }
2024-11-23 16:27:18.730080: I external/xla/xla/hlo/ir/hlo_module.cc:559]     id: 4
2024-11-23 16:27:18.730083: I external/xla/xla/hlo/ir/hlo_module.cc:559]     operand_ids: 3
2024-11-23 16:27:18.730086: I external/xla/xla/hlo/ir/hlo_module.cc:559]     operand_ids: 2
2024-11-23 16:27:18.730089: I external/xla/xla/hlo/ir/hlo_module.cc:559]     precision_config {
2024-11-23 16:27:18.730093: I external/xla/xla/hlo/ir/hlo_module.cc:559]       operand_precision: DEFAULT
2024-11-23 16:27:18.730097: I external/xla/xla/hlo/ir/hlo_module.cc:559]       operand_precision: DEFAULT
2024-11-23 16:27:18.730101: I external/xla/xla/hlo/ir/hlo_module.cc:559]     }
2024-11-23 16:27:18.730106: I external/xla/xla/hlo/ir/hlo_module.cc:559]     frontend_attributes {
2024-11-23 16:27:18.730109: I external/xla/xla/hlo/ir/hlo_module.cc:559]       map {
2024-11-23 16:27:18.730112: I external/xla/xla/hlo/ir/hlo_module.cc:559]         key: "grad_x"
2024-11-23 16:27:18.730115: I external/xla/xla/hlo/ir/hlo_module.cc:559]         value: "false"
2024-11-23 16:27:18.730117: I external/xla/xla/hlo/ir/hlo_module.cc:559]       }
2024-11-23 16:27:18.730120: I external/xla/xla/hlo/ir/hlo_module.cc:559]       map {
2024-11-23 16:27:18.730123: I external/xla/xla/hlo/ir/hlo_module.cc:559]         key: "grad_y"
2024-11-23 16:27:18.730142: I external/xla/xla/hlo/ir/hlo_module.cc:559]         value: "false"
2024-11-23 16:27:18.730145: I external/xla/xla/hlo/ir/hlo_module.cc:559]       }
2024-11-23 16:27:18.730148: I external/xla/xla/hlo/ir/hlo_module.cc:559]     }
2024-11-23 16:27:18.730151: I external/xla/xla/hlo/ir/hlo_module.cc:559]   }
2024-11-23 16:27:18.730154: I external/xla/xla/hlo/ir/hlo_module.cc:559]   instructions {
2024-11-23 16:27:18.730157: I external/xla/xla/hlo/ir/hlo_module.cc:559]     name: "transpose.5"
2024-11-23 16:27:18.730159: I external/xla/xla/hlo/ir/hlo_module.cc:559]     opcode: "transpose"
2024-11-23 16:27:18.730344: I external/xla/xla/hlo/ir/hlo_module.cc:559]     shape {
2024-11-23 16:27:18.730376: I external/xla/xla/hlo/ir/hlo_module.cc:559]       element_type: F32
2024-11-23 16:27:18.730382: I external/xla/xla/hlo/ir/hlo_module.cc:559]       dimensions: 3
2024-11-23 16:27:18.730387: I external/xla/xla/hlo/ir/hlo_module.cc:559]       dimensions: 8
2024-11-23 16:27:18.730392: I external/xla/xla/hlo/ir/hlo_module.cc:559]       layout {
2024-11-23 16:27:18.730398: I external/xla/xla/hlo/ir/hlo_module.cc:559]         minor_to_major: 1
2024-11-23 16:27:18.730403: I external/xla/xla/hlo/ir/hlo_module.cc:559]         minor_to_major: 0
2024-11-23 16:27:18.730409: I external/xla/xla/hlo/ir/hlo_module.cc:559]         tail_padding_alignment_in_elements: 1
2024-11-23 16:27:18.730414: I external/xla/xla/hlo/ir/hlo_module.cc:559]       }
2024-11-23 16:27:18.730419: I external/xla/xla/hlo/ir/hlo_module.cc:559]       is_dynamic_dimension: false
2024-11-23 16:27:18.730424: I external/xla/xla/hlo/ir/hlo_module.cc:559]       is_dynamic_dimension: false
2024-11-23 16:27:18.730429: I external/xla/xla/hlo/ir/hlo_module.cc:559]     }
2024-11-23 16:27:18.730434: I external/xla/xla/hlo/ir/hlo_module.cc:559]     metadata {
2024-11-23 16:27:18.730439: I external/xla/xla/hlo/ir/hlo_module.cc:559]       op_type: "aten__einsum"
2024-11-23 16:27:18.730444: I external/xla/xla/hlo/ir/hlo_module.cc:559]       op_name: "aten__einsum"
2024-11-23 16:27:18.730450: I external/xla/xla/hlo/ir/hlo_module.cc:559]       source_file: "/usr/local/lib/python3.10/dist-packages/torch/functional.py"
2024-11-23 16:27:18.730455: I external/xla/xla/hlo/ir/hlo_module.cc:559]       source_line: 402
2024-11-23 16:27:18.730460: I external/xla/xla/hlo/ir/hlo_module.cc:559]       stack_frame_id: 5
2024-11-23 16:27:18.730464: I external/xla/xla/hlo/ir/hlo_module.cc:559]     }
2024-11-23 16:27:18.730469: I external/xla/xla/hlo/ir/hlo_module.cc:559]     dimensions: 0
2024-11-23 16:27:18.730474: I external/xla/xla/hlo/ir/hlo_module.cc:559]     dimensions: 1
2024-11-23 16:27:18.730479: I external/xla/xla/hlo/ir/hlo_module.cc:559]     id: 5
2024-11-23 16:27:18.730484: I external/xla/xla/hlo/ir/hlo_module.cc:559]     operand_ids: 4
2024-11-23 16:27:18.730490: I external/xla/xla/hlo/ir/hlo_module.cc:559]     frontend_attributes {
2024-11-23 16:27:18.730495: I external/xla/xla/hlo/ir/hlo_module.cc:559]     }
2024-11-23 16:27:18.730500: I external/xla/xla/hlo/ir/hlo_module.cc:559]   }
2024-11-23 16:27:18.730505: I external/xla/xla/hlo/ir/hlo_module.cc:559]   instructions {
2024-11-23 16:27:18.730510: I external/xla/xla/hlo/ir/hlo_module.cc:559]     name: "broadcast.6"
2024-11-23 16:27:18.730516: I external/xla/xla/hlo/ir/hlo_module.cc:559]     opcode: "broadcast"
2024-11-23 16:27:18.730521: I external/xla/xla/hlo/ir/hlo_module.cc:559]     shape {
2024-11-23 16:27:18.730526: I external/xla/xla/hlo/ir/hlo_module.cc:559]       element_type: F32
2024-11-23 16:27:18.730531: I external/xla/xla/hlo/ir/hlo_module.cc:559]       dimensions: 3
2024-11-23 16:27:18.730536: I external/xla/xla/hlo/ir/hlo_module.cc:559]       dimensions: 8
2024-11-23 16:27:18.730541: I external/xla/xla/hlo/ir/hlo_module.cc:559]       layout {
2024-11-23 16:27:18.730546: I external/xla/xla/hlo/ir/hlo_module.cc:559]         minor_to_major: 1
2024-11-23 16:27:18.730552: I external/xla/xla/hlo/ir/hlo_module.cc:559]         minor_to_major: 0
2024-11-23 16:27:18.730557: I external/xla/xla/hlo/ir/hlo_module.cc:559]         tail_padding_alignment_in_elements: 1
2024-11-23 16:27:18.730562: I external/xla/xla/hlo/ir/hlo_module.cc:559]       }
2024-11-23 16:27:18.730567: I external/xla/xla/hlo/ir/hlo_module.cc:559]       is_dynamic_dimension: false
2024-11-23 16:27:18.730572: I external/xla/xla/hlo/ir/hlo_module.cc:559]       is_dynamic_dimension: false
2024-11-23 16:27:18.730577: I external/xla/xla/hlo/ir/hlo_module.cc:559]     }
2024-11-23 16:27:18.730582: I external/xla/xla/hlo/ir/hlo_module.cc:559]     metadata {
2024-11-23 16:27:18.730587: I external/xla/xla/hlo/ir/hlo_module.cc:559]       op_type: "aten__add"
2024-11-23 16:27:18.730635: I external/xla/xla/hlo/ir/hlo_module.cc:559]       op_name: "aten__add.1/aten__add"
2024-11-23 16:27:18.730646: I external/xla/xla/hlo/ir/hlo_module.cc:559]       source_file: "/root/xla/lzy.py"
2024-11-23 16:27:18.730652: I external/xla/xla/hlo/ir/hlo_module.cc:559]       source_line: 13
2024-11-23 16:27:18.730657: I external/xla/xla/hlo/ir/hlo_module.cc:559]       stack_frame_id: 1
2024-11-23 16:27:18.730663: I external/xla/xla/hlo/ir/hlo_module.cc:559]     }
2024-11-23 16:27:18.730668: I external/xla/xla/hlo/ir/hlo_module.cc:559]     id: 6
2024-11-23 16:27:18.730673: I external/xla/xla/hlo/ir/hlo_module.cc:559]     operand_ids: 1
2024-11-23 16:27:18.730679: I external/xla/xla/hlo/ir/hlo_module.cc:559]     frontend_attributes {
2024-11-23 16:27:18.730685: I external/xla/xla/hlo/ir/hlo_module.cc:559]     }
2024-11-23 16:27:18.730691: I external/xla/xla/hlo/ir/hlo_module.cc:559]   }
2024-11-23 16:27:18.730697: I external/xla/xla/hlo/ir/hlo_module.cc:559]   instructions {
2024-11-23 16:27:18.730703: I external/xla/xla/hlo/ir/hlo_module.cc:559]     name: "multiply.7"
2024-11-23 16:27:18.730708: I external/xla/xla/hlo/ir/hlo_module.cc:559]     opcode: "multiply"
2024-11-23 16:27:18.730713: I external/xla/xla/hlo/ir/hlo_module.cc:559]     shape {
2024-11-23 16:27:18.730718: I external/xla/xla/hlo/ir/hlo_module.cc:559]       element_type: F32
2024-11-23 16:27:18.730723: I external/xla/xla/hlo/ir/hlo_module.cc:559]       dimensions: 3
2024-11-23 16:27:18.730728: I external/xla/xla/hlo/ir/hlo_module.cc:559]       dimensions: 8
2024-11-23 16:27:18.730733: I external/xla/xla/hlo/ir/hlo_module.cc:559]       layout {
2024-11-23 16:27:18.730738: I external/xla/xla/hlo/ir/hlo_module.cc:559]         minor_to_major: 1
2024-11-23 16:27:18.730743: I external/xla/xla/hlo/ir/hlo_module.cc:559]         minor_to_major: 0
2024-11-23 16:27:18.730748: I external/xla/xla/hlo/ir/hlo_module.cc:559]         tail_padding_alignment_in_elements: 1
2024-11-23 16:27:18.730753: I external/xla/xla/hlo/ir/hlo_module.cc:559]       }
2024-11-23 16:27:18.730759: I external/xla/xla/hlo/ir/hlo_module.cc:559]       is_dynamic_dimension: false
2024-11-23 16:27:18.730764: I external/xla/xla/hlo/ir/hlo_module.cc:559]       is_dynamic_dimension: false
2024-11-23 16:27:18.730769: I external/xla/xla/hlo/ir/hlo_module.cc:559]     }
2024-11-23 16:27:18.730774: I external/xla/xla/hlo/ir/hlo_module.cc:559]     metadata {
2024-11-23 16:27:18.730779: I external/xla/xla/hlo/ir/hlo_module.cc:559]       op_type: "aten__add"
2024-11-23 16:27:18.730784: I external/xla/xla/hlo/ir/hlo_module.cc:559]       op_name: "aten__add.1/aten__add"
2024-11-23 16:27:18.730789: I external/xla/xla/hlo/ir/hlo_module.cc:559]       source_file: "/root/xla/lzy.py"
2024-11-23 16:27:18.730794: I external/xla/xla/hlo/ir/hlo_module.cc:559]       source_line: 13
2024-11-23 16:27:18.730800: I external/xla/xla/hlo/ir/hlo_module.cc:559]       stack_frame_id: 1
2024-11-23 16:27:18.730805: I external/xla/xla/hlo/ir/hlo_module.cc:559]     }
2024-11-23 16:27:18.730810: I external/xla/xla/hlo/ir/hlo_module.cc:559]     id: 7
2024-11-23 16:27:18.730815: I external/xla/xla/hlo/ir/hlo_module.cc:559]     operand_ids: 2
2024-11-23 16:27:18.730821: I external/xla/xla/hlo/ir/hlo_module.cc:559]     operand_ids: 6
2024-11-23 16:27:18.730826: I external/xla/xla/hlo/ir/hlo_module.cc:559]     frontend_attributes {
2024-11-23 16:27:18.730832: I external/xla/xla/hlo/ir/hlo_module.cc:559]     }
2024-11-23 16:27:18.730837: I external/xla/xla/hlo/ir/hlo_module.cc:559]   }
2024-11-23 16:27:18.730842: I external/xla/xla/hlo/ir/hlo_module.cc:559]   instructions {
2024-11-23 16:27:18.730848: I external/xla/xla/hlo/ir/hlo_module.cc:559]     name: "add.8"
2024-11-23 16:27:18.730853: I external/xla/xla/hlo/ir/hlo_module.cc:559]     opcode: "add"
2024-11-23 16:27:18.730858: I external/xla/xla/hlo/ir/hlo_module.cc:559]     shape {
2024-11-23 16:27:18.730864: I external/xla/xla/hlo/ir/hlo_module.cc:559]       element_type: F32
2024-11-23 16:27:18.730869: I external/xla/xla/hlo/ir/hlo_module.cc:559]       dimensions: 3
2024-11-23 16:27:18.731206: I external/xla/xla/hlo/ir/hlo_module.cc:559]       dimensions: 8
2024-11-23 16:27:18.731230: I external/xla/xla/hlo/ir/hlo_module.cc:559]       layout {
2024-11-23 16:27:18.731233: I external/xla/xla/hlo/ir/hlo_module.cc:559]         minor_to_major: 1
2024-11-23 16:27:18.731236: I external/xla/xla/hlo/ir/hlo_module.cc:559]         minor_to_major: 0
2024-11-23 16:27:18.731238: I external/xla/xla/hlo/ir/hlo_module.cc:559]         tail_padding_alignment_in_elements: 1
2024-11-23 16:27:18.731241: I external/xla/xla/hlo/ir/hlo_module.cc:559]       }
2024-11-23 16:27:18.731244: I external/xla/xla/hlo/ir/hlo_module.cc:559]       is_dynamic_dimension: false
2024-11-23 16:27:18.731247: I external/xla/xla/hlo/ir/hlo_module.cc:559]       is_dynamic_dimension: false
2024-11-23 16:27:18.731250: I external/xla/xla/hlo/ir/hlo_module.cc:559]     }
2024-11-23 16:27:18.731252: I external/xla/xla/hlo/ir/hlo_module.cc:559]     metadata {
2024-11-23 16:27:18.731255: I external/xla/xla/hlo/ir/hlo_module.cc:559]       op_type: "aten__add"
2024-11-23 16:27:18.731258: I external/xla/xla/hlo/ir/hlo_module.cc:559]       op_name: "aten__add.1/aten__add"
2024-11-23 16:27:18.731261: I external/xla/xla/hlo/ir/hlo_module.cc:559]       source_file: "/root/xla/lzy.py"
2024-11-23 16:27:18.731264: I external/xla/xla/hlo/ir/hlo_module.cc:559]       source_line: 13
2024-11-23 16:27:18.731266: I external/xla/xla/hlo/ir/hlo_module.cc:559]       stack_frame_id: 1
2024-11-23 16:27:18.731269: I external/xla/xla/hlo/ir/hlo_module.cc:559]     }
2024-11-23 16:27:18.731272: I external/xla/xla/hlo/ir/hlo_module.cc:559]     id: 8
2024-11-23 16:27:18.731275: I external/xla/xla/hlo/ir/hlo_module.cc:559]     operand_ids: 5
2024-11-23 16:27:18.731278: I external/xla/xla/hlo/ir/hlo_module.cc:559]     operand_ids: 7
2024-11-23 16:27:18.731280: I external/xla/xla/hlo/ir/hlo_module.cc:559]     frontend_attributes {
2024-11-23 16:27:18.731283: I external/xla/xla/hlo/ir/hlo_module.cc:559]     }
2024-11-23 16:27:18.731286: I external/xla/xla/hlo/ir/hlo_module.cc:559]   }
2024-11-23 16:27:18.731289: I external/xla/xla/hlo/ir/hlo_module.cc:559]   instructions {
2024-11-23 16:27:18.731292: I external/xla/xla/hlo/ir/hlo_module.cc:559]     name: "tuple.9"
2024-11-23 16:27:18.731294: I external/xla/xla/hlo/ir/hlo_module.cc:559]     opcode: "tuple"
2024-11-23 16:27:18.731297: I external/xla/xla/hlo/ir/hlo_module.cc:559]     shape {
2024-11-23 16:27:18.731300: I external/xla/xla/hlo/ir/hlo_module.cc:559]       element_type: TUPLE
2024-11-23 16:27:18.731303: I external/xla/xla/hlo/ir/hlo_module.cc:559]       tuple_shapes {
2024-11-23 16:27:18.731305: I external/xla/xla/hlo/ir/hlo_module.cc:559]         element_type: F32
2024-11-23 16:27:18.731308: I external/xla/xla/hlo/ir/hlo_module.cc:559]         dimensions: 3
2024-11-23 16:27:18.731311: I external/xla/xla/hlo/ir/hlo_module.cc:559]         dimensions: 8
2024-11-23 16:27:18.731314: I external/xla/xla/hlo/ir/hlo_module.cc:559]         layout {
2024-11-23 16:27:18.731316: I external/xla/xla/hlo/ir/hlo_module.cc:559]           minor_to_major: 1
2024-11-23 16:27:18.731319: I external/xla/xla/hlo/ir/hlo_module.cc:559]           minor_to_major: 0
2024-11-23 16:27:18.731322: I external/xla/xla/hlo/ir/hlo_module.cc:559]           tail_padding_alignment_in_elements: 1
2024-11-23 16:27:18.731325: I external/xla/xla/hlo/ir/hlo_module.cc:559]         }
2024-11-23 16:27:18.731327: I external/xla/xla/hlo/ir/hlo_module.cc:559]         is_dynamic_dimension: false
2024-11-23 16:27:18.731330: I external/xla/xla/hlo/ir/hlo_module.cc:559]         is_dynamic_dimension: false
2024-11-23 16:27:18.731333: I external/xla/xla/hlo/ir/hlo_module.cc:559]       }
2024-11-23 16:27:18.731336: I external/xla/xla/hlo/ir/hlo_module.cc:559]     }
2024-11-23 16:27:18.731338: I external/xla/xla/hlo/ir/hlo_module.cc:559]     metadata {
2024-11-23 16:27:18.731341: I external/xla/xla/hlo/ir/hlo_module.cc:559]     }
2024-11-23 16:27:18.731344: I external/xla/xla/hlo/ir/hlo_module.cc:559]     id: 9
2024-11-23 16:27:18.731499: I external/xla/xla/hlo/ir/hlo_module.cc:559]     operand_ids: 8
2024-11-23 16:27:18.731505: I external/xla/xla/hlo/ir/hlo_module.cc:559]     frontend_attributes {
2024-11-23 16:27:18.731508: I external/xla/xla/hlo/ir/hlo_module.cc:559]     }
2024-11-23 16:27:18.731511: I external/xla/xla/hlo/ir/hlo_module.cc:559]   }
2024-11-23 16:27:18.731514: I external/xla/xla/hlo/ir/hlo_module.cc:559]   program_shape {
2024-11-23 16:27:18.731517: I external/xla/xla/hlo/ir/hlo_module.cc:559]     parameters {
2024-11-23 16:27:18.731519: I external/xla/xla/hlo/ir/hlo_module.cc:559]       element_type: F32
2024-11-23 16:27:18.731522: I external/xla/xla/hlo/ir/hlo_module.cc:559]       dimensions: 3
2024-11-23 16:27:18.731525: I external/xla/xla/hlo/ir/hlo_module.cc:559]       dimensions: 8
2024-11-23 16:27:18.731528: I external/xla/xla/hlo/ir/hlo_module.cc:559]       layout {
2024-11-23 16:27:18.731530: I external/xla/xla/hlo/ir/hlo_module.cc:559]         minor_to_major: 1
2024-11-23 16:27:18.731533: I external/xla/xla/hlo/ir/hlo_module.cc:559]         minor_to_major: 0
2024-11-23 16:27:18.731536: I external/xla/xla/hlo/ir/hlo_module.cc:559]         tail_padding_alignment_in_elements: 1
2024-11-23 16:27:18.731538: I external/xla/xla/hlo/ir/hlo_module.cc:559]       }
2024-11-23 16:27:18.731541: I external/xla/xla/hlo/ir/hlo_module.cc:559]       is_dynamic_dimension: false
2024-11-23 16:27:18.731544: I external/xla/xla/hlo/ir/hlo_module.cc:559]       is_dynamic_dimension: false
2024-11-23 16:27:18.731547: I external/xla/xla/hlo/ir/hlo_module.cc:559]     }
2024-11-23 16:27:18.731549: I external/xla/xla/hlo/ir/hlo_module.cc:559]     parameters {
2024-11-23 16:27:18.731552: I external/xla/xla/hlo/ir/hlo_module.cc:559]       element_type: F32
2024-11-23 16:27:18.731555: I external/xla/xla/hlo/ir/hlo_module.cc:559]       dimensions: 3
2024-11-23 16:27:18.731558: I external/xla/xla/hlo/ir/hlo_module.cc:559]       dimensions: 3
2024-11-23 16:27:18.731560: I external/xla/xla/hlo/ir/hlo_module.cc:559]       layout {
2024-11-23 16:27:18.731563: I external/xla/xla/hlo/ir/hlo_module.cc:559]         minor_to_major: 1
2024-11-23 16:27:18.731566: I external/xla/xla/hlo/ir/hlo_module.cc:559]         minor_to_major: 0
2024-11-23 16:27:18.731568: I external/xla/xla/hlo/ir/hlo_module.cc:559]         tail_padding_alignment_in_elements: 1
2024-11-23 16:27:18.731571: I external/xla/xla/hlo/ir/hlo_module.cc:559]       }
2024-11-23 16:27:18.731574: I external/xla/xla/hlo/ir/hlo_module.cc:559]       is_dynamic_dimension: false
2024-11-23 16:27:18.731576: I external/xla/xla/hlo/ir/hlo_module.cc:559]       is_dynamic_dimension: false
2024-11-23 16:27:18.731579: I external/xla/xla/hlo/ir/hlo_module.cc:559]     }
2024-11-23 16:27:18.731582: I external/xla/xla/hlo/ir/hlo_module.cc:559]     result {
2024-11-23 16:27:18.731585: I external/xla/xla/hlo/ir/hlo_module.cc:559]       element_type: TUPLE
2024-11-23 16:27:18.731588: I external/xla/xla/hlo/ir/hlo_module.cc:559]       tuple_shapes {
2024-11-23 16:27:18.731590: I external/xla/xla/hlo/ir/hlo_module.cc:559]         element_type: F32
2024-11-23 16:27:18.731593: I external/xla/xla/hlo/ir/hlo_module.cc:559]         dimensions: 3
2024-11-23 16:27:18.731596: I external/xla/xla/hlo/ir/hlo_module.cc:559]         dimensions: 8
2024-11-23 16:27:18.731598: I external/xla/xla/hlo/ir/hlo_module.cc:559]         layout {
2024-11-23 16:27:18.731601: I external/xla/xla/hlo/ir/hlo_module.cc:559]           minor_to_major: 1
2024-11-23 16:27:18.731604: I external/xla/xla/hlo/ir/hlo_module.cc:559]           minor_to_major: 0
2024-11-23 16:27:18.731607: I external/xla/xla/hlo/ir/hlo_module.cc:559]           tail_padding_alignment_in_elements: 1
2024-11-23 16:27:18.731609: I external/xla/xla/hlo/ir/hlo_module.cc:559]         }
2024-11-23 16:27:18.731612: I external/xla/xla/hlo/ir/hlo_module.cc:559]         is_dynamic_dimension: false
2024-11-23 16:27:18.731615: I external/xla/xla/hlo/ir/hlo_module.cc:559]         is_dynamic_dimension: false
2024-11-23 16:27:18.731618: I external/xla/xla/hlo/ir/hlo_module.cc:559]       }
2024-11-23 16:27:18.731796: I external/xla/xla/hlo/ir/hlo_module.cc:559]     }
2024-11-23 16:27:18.731802: I external/xla/xla/hlo/ir/hlo_module.cc:559]     parameter_names: "p0"
2024-11-23 16:27:18.731805: I external/xla/xla/hlo/ir/hlo_module.cc:559]     parameter_names: "p1"
2024-11-23 16:27:18.731808: I external/xla/xla/hlo/ir/hlo_module.cc:559]   }
2024-11-23 16:27:18.731811: I external/xla/xla/hlo/ir/hlo_module.cc:559]   id: 10
2024-11-23 16:27:18.731814: I external/xla/xla/hlo/ir/hlo_module.cc:559]   root_id: 9
2024-11-23 16:27:18.731817: I external/xla/xla/hlo/ir/hlo_module.cc:559] }
2024-11-23 16:27:18.731820: I external/xla/xla/hlo/ir/hlo_module.cc:559] host_program_shape {
2024-11-23 16:27:18.731822: I external/xla/xla/hlo/ir/hlo_module.cc:559]   parameters {
2024-11-23 16:27:18.731825: I external/xla/xla/hlo/ir/hlo_module.cc:559]     element_type: F32
2024-11-23 16:27:18.731828: I external/xla/xla/hlo/ir/hlo_module.cc:559]     dimensions: 3
2024-11-23 16:27:18.731831: I external/xla/xla/hlo/ir/hlo_module.cc:559]     dimensions: 8
2024-11-23 16:27:18.731834: I external/xla/xla/hlo/ir/hlo_module.cc:559]     layout {
2024-11-23 16:27:18.731836: I external/xla/xla/hlo/ir/hlo_module.cc:559]       minor_to_major: 1
2024-11-23 16:27:18.731839: I external/xla/xla/hlo/ir/hlo_module.cc:559]       minor_to_major: 0
2024-11-23 16:27:18.731842: I external/xla/xla/hlo/ir/hlo_module.cc:559]       tail_padding_alignment_in_elements: 1
2024-11-23 16:27:18.731845: I external/xla/xla/hlo/ir/hlo_module.cc:559]     }
2024-11-23 16:27:18.731847: I external/xla/xla/hlo/ir/hlo_module.cc:559]     is_dynamic_dimension: false
2024-11-23 16:27:18.731850: I external/xla/xla/hlo/ir/hlo_module.cc:559]     is_dynamic_dimension: false
2024-11-23 16:27:18.731853: I external/xla/xla/hlo/ir/hlo_module.cc:559]   }
2024-11-23 16:27:18.731856: I external/xla/xla/hlo/ir/hlo_module.cc:559]   parameters {
2024-11-23 16:27:18.731859: I external/xla/xla/hlo/ir/hlo_module.cc:559]     element_type: F32
2024-11-23 16:27:18.731861: I external/xla/xla/hlo/ir/hlo_module.cc:559]     dimensions: 3
2024-11-23 16:27:18.731864: I external/xla/xla/hlo/ir/hlo_module.cc:559]     dimensions: 3
2024-11-23 16:27:18.731867: I external/xla/xla/hlo/ir/hlo_module.cc:559]     layout {
2024-11-23 16:27:18.731870: I external/xla/xla/hlo/ir/hlo_module.cc:559]       minor_to_major: 1
2024-11-23 16:27:18.731872: I external/xla/xla/hlo/ir/hlo_module.cc:559]       minor_to_major: 0
2024-11-23 16:27:18.731875: I external/xla/xla/hlo/ir/hlo_module.cc:559]       tail_padding_alignment_in_elements: 1
2024-11-23 16:27:18.731878: I external/xla/xla/hlo/ir/hlo_module.cc:559]     }
2024-11-23 16:27:18.731881: I external/xla/xla/hlo/ir/hlo_module.cc:559]     is_dynamic_dimension: false
2024-11-23 16:27:18.731883: I external/xla/xla/hlo/ir/hlo_module.cc:559]     is_dynamic_dimension: false
2024-11-23 16:27:18.731886: I external/xla/xla/hlo/ir/hlo_module.cc:559]   }
2024-11-23 16:27:18.731890: I external/xla/xla/hlo/ir/hlo_module.cc:559]   result {
2024-11-23 16:27:18.731894: I external/xla/xla/hlo/ir/hlo_module.cc:559]     element_type: TUPLE
2024-11-23 16:27:18.731897: I external/xla/xla/hlo/ir/hlo_module.cc:559]     tuple_shapes {
2024-11-23 16:27:18.731900: I external/xla/xla/hlo/ir/hlo_module.cc:559]       element_type: F32
2024-11-23 16:27:18.731903: I external/xla/xla/hlo/ir/hlo_module.cc:559]       dimensions: 3
2024-11-23 16:27:18.731906: I external/xla/xla/hlo/ir/hlo_module.cc:559]       dimensions: 8
2024-11-23 16:27:18.731908: I external/xla/xla/hlo/ir/hlo_module.cc:559]       layout {
2024-11-23 16:27:18.731911: I external/xla/xla/hlo/ir/hlo_module.cc:559]         minor_to_major: 1
2024-11-23 16:27:18.731914: I external/xla/xla/hlo/ir/hlo_module.cc:559]         minor_to_major: 0
2024-11-23 16:27:18.731917: I external/xla/xla/hlo/ir/hlo_module.cc:559]         tail_padding_alignment_in_elements: 1
2024-11-23 16:27:18.731920: I external/xla/xla/hlo/ir/hlo_module.cc:559]       }
2024-11-23 16:27:18.731923: I external/xla/xla/hlo/ir/hlo_module.cc:559]       is_dynamic_dimension: false
2024-11-23 16:27:18.732139: I external/xla/xla/hlo/ir/hlo_module.cc:559]       is_dynamic_dimension: false
2024-11-23 16:27:18.732147: I external/xla/xla/hlo/ir/hlo_module.cc:559]     }
2024-11-23 16:27:18.732153: I external/xla/xla/hlo/ir/hlo_module.cc:559]   }
2024-11-23 16:27:18.732156: I external/xla/xla/hlo/ir/hlo_module.cc:559]   parameter_names: "p0"
2024-11-23 16:27:18.732158: I external/xla/xla/hlo/ir/hlo_module.cc:559]   parameter_names: "p1"
2024-11-23 16:27:18.732161: I external/xla/xla/hlo/ir/hlo_module.cc:559] }
2024-11-23 16:27:18.732164: I external/xla/xla/hlo/ir/hlo_module.cc:559] id: 10
2024-11-23 16:27:18.732167: I external/xla/xla/hlo/ir/hlo_module.cc:559] entry_computation_id: 10
2024-11-23 16:27:18.732170: I external/xla/xla/hlo/ir/hlo_module.cc:559] stack_frame_index {
2024-11-23 16:27:18.732173: I external/xla/xla/hlo/ir/hlo_module.cc:559]   file_names: "/root/xla/lzy.py"
2024-11-23 16:27:18.732176: I external/xla/xla/hlo/ir/hlo_module.cc:559]   file_names: "/usr/local/lib/python3.10/dist-packages/torch/functional.py"
2024-11-23 16:27:18.732179: I external/xla/xla/hlo/ir/hlo_module.cc:559]   function_names: "<module>"
2024-11-23 16:27:18.732181: I external/xla/xla/hlo/ir/hlo_module.cc:559]   function_names: "einsum"
2024-11-23 16:27:18.732184: I external/xla/xla/hlo/ir/hlo_module.cc:559]   file_locations {
2024-11-23 16:27:18.732187: I external/xla/xla/hlo/ir/hlo_module.cc:559]     file_name_id: 1
2024-11-23 16:27:18.732190: I external/xla/xla/hlo/ir/hlo_module.cc:559]     function_name_id: 1
2024-11-23 16:27:18.732193: I external/xla/xla/hlo/ir/hlo_module.cc:559]     line: 13
2024-11-23 16:27:18.732196: I external/xla/xla/hlo/ir/hlo_module.cc:559]   }
2024-11-23 16:27:18.732198: I external/xla/xla/hlo/ir/hlo_module.cc:559]   file_locations {
2024-11-23 16:27:18.732201: I external/xla/xla/hlo/ir/hlo_module.cc:559]     file_name_id: 1
2024-11-23 16:27:18.732204: I external/xla/xla/hlo/ir/hlo_module.cc:559]     function_name_id: 1
2024-11-23 16:27:18.732207: I external/xla/xla/hlo/ir/hlo_module.cc:559]     line: 8
2024-11-23 16:27:18.732210: I external/xla/xla/hlo/ir/hlo_module.cc:559]   }
2024-11-23 16:27:18.732212: I external/xla/xla/hlo/ir/hlo_module.cc:559]   file_locations {
2024-11-23 16:27:18.732215: I external/xla/xla/hlo/ir/hlo_module.cc:559]     file_name_id: 1
2024-11-23 16:27:18.732218: I external/xla/xla/hlo/ir/hlo_module.cc:559]     function_name_id: 1
2024-11-23 16:27:18.732221: I external/xla/xla/hlo/ir/hlo_module.cc:559]     line: 7
2024-11-23 16:27:18.732224: I external/xla/xla/hlo/ir/hlo_module.cc:559]   }
2024-11-23 16:27:18.732226: I external/xla/xla/hlo/ir/hlo_module.cc:559]   file_locations {
2024-11-23 16:27:18.732229: I external/xla/xla/hlo/ir/hlo_module.cc:559]     file_name_id: 1
2024-11-23 16:27:18.732232: I external/xla/xla/hlo/ir/hlo_module.cc:559]     function_name_id: 1
2024-11-23 16:27:18.732235: I external/xla/xla/hlo/ir/hlo_module.cc:559]     line: 10
2024-11-23 16:27:18.732237: I external/xla/xla/hlo/ir/hlo_module.cc:559]   }
2024-11-23 16:27:18.732240: I external/xla/xla/hlo/ir/hlo_module.cc:559]   file_locations {
2024-11-23 16:27:18.732243: I external/xla/xla/hlo/ir/hlo_module.cc:559]     file_name_id: 2
2024-11-23 16:27:18.732246: I external/xla/xla/hlo/ir/hlo_module.cc:559]     function_name_id: 2
2024-11-23 16:27:18.732249: I external/xla/xla/hlo/ir/hlo_module.cc:559]     line: 402
2024-11-23 16:27:18.732251: I external/xla/xla/hlo/ir/hlo_module.cc:559]   }
2024-11-23 16:27:18.732254: I external/xla/xla/hlo/ir/hlo_module.cc:559]   stack_frames {
2024-11-23 16:27:18.732257: I external/xla/xla/hlo/ir/hlo_module.cc:559]     file_location_id: 1
2024-11-23 16:27:18.732260: I external/xla/xla/hlo/ir/hlo_module.cc:559]   }
2024-11-23 16:27:18.732262: I external/xla/xla/hlo/ir/hlo_module.cc:559]   stack_frames {
2024-11-23 16:27:18.732266: I external/xla/xla/hlo/ir/hlo_module.cc:559]     file_location_id: 2
2024-11-23 16:27:18.732269: I external/xla/xla/hlo/ir/hlo_module.cc:559]   }
2024-11-23 16:27:18.732271: I external/xla/xla/hlo/ir/hlo_module.cc:559]   stack_frames {
2024-11-23 16:27:18.732459: I external/xla/xla/hlo/ir/hlo_module.cc:559]     file_location_id: 3
2024-11-23 16:27:18.732467: I external/xla/xla/hlo/ir/hlo_module.cc:559]   }
2024-11-23 16:27:18.732470: I external/xla/xla/hlo/ir/hlo_module.cc:559]   stack_frames {
2024-11-23 16:27:18.732472: I external/xla/xla/hlo/ir/hlo_module.cc:559]     file_location_id: 4
2024-11-23 16:27:18.732475: I external/xla/xla/hlo/ir/hlo_module.cc:559]   }
2024-11-23 16:27:18.732478: I external/xla/xla/hlo/ir/hlo_module.cc:559]   stack_frames {
2024-11-23 16:27:18.732481: I external/xla/xla/hlo/ir/hlo_module.cc:559]     file_location_id: 5
2024-11-23 16:27:18.732484: I external/xla/xla/hlo/ir/hlo_module.cc:559]     parent_frame_id: 4
2024-11-23 16:27:18.732487: I external/xla/xla/hlo/ir/hlo_module.cc:559]   }
2024-11-23 16:27:18.732490: I external/xla/xla/hlo/ir/hlo_module.cc:559] }
2024-11-23 16:27:18.732552: I external/xla/xla/shape_util.cc:1024] Validating shape size: f32[]
2024-11-23 16:27:18.732559: I external/xla/xla/shape_util.cc:1040] Shape size is valid: 4
2024-11-23 16:27:18.732569: I external/xla/xla/shape_util.cc:1024] Validating shape size: f32[]
2024-11-23 16:27:18.732572: I external/xla/xla/shape_util.cc:1040] Shape size is valid: 4
2024-11-23 16:27:18.732799: I external/xla/xla/shape_util.cc:1024] Validating shape size: f32[3,8]
2024-11-23 16:27:18.732811: I external/xla/xla/shape_util.cc:1040] Shape size is valid: 96
2024-11-23 16:27:18.732822: I external/xla/xla/shape_util.cc:1024] Validating shape size: f32[3,3]
2024-11-23 16:27:18.732825: I external/xla/xla/shape_util.cc:1040] Shape size is valid: 36
2024-11-23 16:27:18.732831: I external/xla/xla/shape_util.cc:1024] Validating shape size: f32[3,8]
2024-11-23 16:27:18.732834: I external/xla/xla/shape_util.cc:1040] Shape size is valid: 96
2024-11-23 16:27:18.732851: I external/xla/xla/shape_util.cc:1024] Validating shape size: f32[3,8]
2024-11-23 16:27:18.732855: I external/xla/xla/shape_util.cc:1040] Shape size is valid: 96
2024-11-23 16:27:18.732862: I external/xla/xla/shape_util.cc:1024] Validating shape size: f32[3,8]
2024-11-23 16:27:18.732865: I external/xla/xla/shape_util.cc:1040] Shape size is valid: 96
2024-11-23 16:27:18.732872: I external/xla/xla/shape_util.cc:1024] Validating shape size: f32[3,8]
2024-11-23 16:27:18.732875: I external/xla/xla/shape_util.cc:1040] Shape size is valid: 96
2024-11-23 16:27:18.732880: I external/xla/xla/shape_util.cc:1024] Validating shape size: f32[3,8]
2024-11-23 16:27:18.732883: I external/xla/xla/shape_util.cc:1040] Shape size is valid: 96
2024-11-23 16:27:18.732889: I external/xla/xla/shape_util.cc:1024] Validating shape size: f32[3,8]
2024-11-23 16:27:18.732894: I external/xla/xla/shape_util.cc:1040] Shape size is valid: 96
2024-11-23 16:27:18.732907: I external/xla/xla/hlo/ir/hlo_computation.cc:244] Adding instruction 0x60b0a7dc7290 constant.1 from computation SyncTensorsGraph.10 opcode constant
2024-11-23 16:27:18.732911: I external/xla/xla/hlo/ir/hlo_computation.cc:244] Adding instruction 0x60b0a7eaf7c0 p0.2 from computation SyncTensorsGraph.10 opcode parameter
2024-11-23 16:27:18.732915: I external/xla/xla/hlo/ir/hlo_computation.cc:244] Adding instruction 0x60b0a7f181d0 p1.3 from computation SyncTensorsGraph.10 opcode parameter
2024-11-23 16:27:18.732918: I external/xla/xla/hlo/ir/hlo_computation.cc:244] Adding instruction 0x60b0a7f184e0 dot.4 from computation SyncTensorsGraph.10 opcode dot
2024-11-23 16:27:18.732923: I external/xla/xla/hlo/ir/hlo_computation.cc:244] Adding instruction 0x60b0a7eb06e0 transpose.5 from computation SyncTensorsGraph.10 opcode transpose
2024-11-23 16:27:18.732926: I external/xla/xla/hlo/ir/hlo_computation.cc:244] Adding instruction 0x60b0a7f18870 broadcast.6 from computation SyncTensorsGraph.10 opcode broadcast
2024-11-23 16:27:18.732929: I external/xla/xla/hlo/ir/hlo_computation.cc:244] Adding instruction 0x60b0a7e36550 multiply.7 from computation SyncTensorsGraph.10 opcode multiply
2024-11-23 16:27:18.732932: I external/xla/xla/hlo/ir/hlo_computation.cc:244] Adding instruction 0x60b0a7e2ada0 add.8 from computation SyncTensorsGraph.10 opcode add
2024-11-23 16:27:18.732961: I external/xla/xla/hlo/ir/hlo_computation.cc:244] Adding instruction 0x60b0a7e42680 tuple.9 from computation SyncTensorsGraph.10 opcode tuple
2024-11-23 16:27:18.880247: I external/xla/xla/pjrt/mlir_to_hlo.cc:94] MHLO module after lowering, before HLO import 
module @SyncTensorsGraph.10 attributes {mhlo.cross_program_prefetches = [], mhlo.input_output_alias = [], mhlo.is_dynamic = false, mhlo.use_auto_spmd_partitioning = false} {
  func.func @main(%arg0: tensor<3x8xf32>, %arg1: tensor<3x3xf32>) -> tensor<3x8xf32> {
    %0 = "mhlo.dot_general"(%arg1, %arg0) <{dot_dimension_numbers = #mhlo.dot<lhs_contracting_dimensions = [1], rhs_contracting_dimensions = [0]>, precision_config = [#mhlo<precision DEFAULT>, #mhlo<precision DEFAULT>]}> : (tensor<3x3xf32>, tensor<3x8xf32>) -> tensor<3x8xf32>
    %1 = mhlo.add %0, %arg0 : tensor<3x8xf32>
    return %1 : tensor<3x8xf32>
  }
}
2024-11-23 16:27:18.886421: I external/xla/xla/service/shape_inference.cc:972] inferred dot shape: f32[3,8]
2024-11-23 16:27:18.886519: I external/xla/xla/service/shape_inference.cc:1296] inferring shape for <add>(f32[3,8]{1,0}, f32[3,8]{1,0}) with broadcast_dimensions={}
2024-11-23 16:27:18.886631: I external/xla/xla/hlo/ir/hlo_module.cc:558] CreateFromProto()
2024-11-23 16:27:18.886744: I external/xla/xla/hlo/ir/hlo_module.cc:559] name: "SyncTensorsGraph.10"
2024-11-23 16:27:18.886749: I external/xla/xla/hlo/ir/hlo_module.cc:559] entry_computation_name: "main.5"
2024-11-23 16:27:18.886754: I external/xla/xla/hlo/ir/hlo_module.cc:559] computations {
2024-11-23 16:27:18.886758: I external/xla/xla/hlo/ir/hlo_module.cc:559]   name: "main.5"
2024-11-23 16:27:18.886762: I external/xla/xla/hlo/ir/hlo_module.cc:559]   instructions {
2024-11-23 16:27:18.886767: I external/xla/xla/hlo/ir/hlo_module.cc:559]     name: "Arg_0.1"
2024-11-23 16:27:18.886771: I external/xla/xla/hlo/ir/hlo_module.cc:559]     opcode: "parameter"
2024-11-23 16:27:18.886775: I external/xla/xla/hlo/ir/hlo_module.cc:559]     shape {
2024-11-23 16:27:18.886780: I external/xla/xla/hlo/ir/hlo_module.cc:559]       element_type: F32
2024-11-23 16:27:18.886784: I external/xla/xla/hlo/ir/hlo_module.cc:559]       dimensions: 3
2024-11-23 16:27:18.886788: I external/xla/xla/hlo/ir/hlo_module.cc:559]       dimensions: 8
2024-11-23 16:27:18.886792: I external/xla/xla/hlo/ir/hlo_module.cc:559]       layout {
2024-11-23 16:27:18.886797: I external/xla/xla/hlo/ir/hlo_module.cc:559]         minor_to_major: 1
2024-11-23 16:27:18.886801: I external/xla/xla/hlo/ir/hlo_module.cc:559]         minor_to_major: 0
2024-11-23 16:27:18.886805: I external/xla/xla/hlo/ir/hlo_module.cc:559]         tail_padding_alignment_in_elements: 1
2024-11-23 16:27:18.886809: I external/xla/xla/hlo/ir/hlo_module.cc:559]       }
2024-11-23 16:27:18.886814: I external/xla/xla/hlo/ir/hlo_module.cc:559]       is_dynamic_dimension: false
2024-11-23 16:27:18.886818: I external/xla/xla/hlo/ir/hlo_module.cc:559]       is_dynamic_dimension: false
2024-11-23 16:27:18.886822: I external/xla/xla/hlo/ir/hlo_module.cc:559]     }
2024-11-23 16:27:18.886827: I external/xla/xla/hlo/ir/hlo_module.cc:559]     metadata {
2024-11-23 16:27:18.886831: I external/xla/xla/hlo/ir/hlo_module.cc:559]       op_name: "xla__device_data"
2024-11-23 16:27:18.886835: I external/xla/xla/hlo/ir/hlo_module.cc:559]     }
2024-11-23 16:27:18.886839: I external/xla/xla/hlo/ir/hlo_module.cc:559]     id: 1
2024-11-23 16:27:18.886844: I external/xla/xla/hlo/ir/hlo_module.cc:559]     frontend_attributes {
2024-11-23 16:27:18.886848: I external/xla/xla/hlo/ir/hlo_module.cc:559]     }
2024-11-23 16:27:18.886852: I external/xla/xla/hlo/ir/hlo_module.cc:559]   }
2024-11-23 16:27:18.886856: I external/xla/xla/hlo/ir/hlo_module.cc:559]   instructions {
2024-11-23 16:27:18.886860: I external/xla/xla/hlo/ir/hlo_module.cc:559]     name: "Arg_1.2"
2024-11-23 16:27:18.886865: I external/xla/xla/hlo/ir/hlo_module.cc:559]     opcode: "parameter"
2024-11-23 16:27:18.886869: I external/xla/xla/hlo/ir/hlo_module.cc:559]     shape {
2024-11-23 16:27:18.886886: I external/xla/xla/hlo/ir/hlo_module.cc:559]       element_type: F32
2024-11-23 16:27:18.886890: I external/xla/xla/hlo/ir/hlo_module.cc:559]       dimensions: 3
2024-11-23 16:27:18.886895: I external/xla/xla/hlo/ir/hlo_module.cc:559]       dimensions: 3
2024-11-23 16:27:18.886899: I external/xla/xla/hlo/ir/hlo_module.cc:559]       layout {
2024-11-23 16:27:18.886903: I external/xla/xla/hlo/ir/hlo_module.cc:559]         minor_to_major: 1
2024-11-23 16:27:18.886907: I external/xla/xla/hlo/ir/hlo_module.cc:559]         minor_to_major: 0
2024-11-23 16:27:18.886911: I external/xla/xla/hlo/ir/hlo_module.cc:559]         tail_padding_alignment_in_elements: 1
2024-11-23 16:27:18.886916: I external/xla/xla/hlo/ir/hlo_module.cc:559]       }
2024-11-23 16:27:18.886920: I external/xla/xla/hlo/ir/hlo_module.cc:559]       is_dynamic_dimension: false
2024-11-23 16:27:18.886924: I external/xla/xla/hlo/ir/hlo_module.cc:559]       is_dynamic_dimension: false
2024-11-23 16:27:18.886928: I external/xla/xla/hlo/ir/hlo_module.cc:559]     }
2024-11-23 16:27:18.886932: I external/xla/xla/hlo/ir/hlo_module.cc:559]     metadata {
2024-11-23 16:27:18.886937: I external/xla/xla/hlo/ir/hlo_module.cc:559]       op_name: "xla__device_data"
2024-11-23 16:27:18.886941: I external/xla/xla/hlo/ir/hlo_module.cc:559]     }
2024-11-23 16:27:18.886945: I external/xla/xla/hlo/ir/hlo_module.cc:559]     parameter_number: 1
2024-11-23 16:27:18.886949: I external/xla/xla/hlo/ir/hlo_module.cc:559]     id: 2
2024-11-23 16:27:18.886954: I external/xla/xla/hlo/ir/hlo_module.cc:559]     frontend_attributes {
2024-11-23 16:27:18.886958: I external/xla/xla/hlo/ir/hlo_module.cc:559]     }
2024-11-23 16:27:18.886962: I external/xla/xla/hlo/ir/hlo_module.cc:559]   }
2024-11-23 16:27:18.886966: I external/xla/xla/hlo/ir/hlo_module.cc:559]   instructions {
2024-11-23 16:27:18.886971: I external/xla/xla/hlo/ir/hlo_module.cc:559]     name: "dot.3"
2024-11-23 16:27:18.886975: I external/xla/xla/hlo/ir/hlo_module.cc:559]     opcode: "dot"
2024-11-23 16:27:18.886979: I external/xla/xla/hlo/ir/hlo_module.cc:559]     shape {
2024-11-23 16:27:18.886983: I external/xla/xla/hlo/ir/hlo_module.cc:559]       element_type: F32
2024-11-23 16:27:18.886987: I external/xla/xla/hlo/ir/hlo_module.cc:559]       dimensions: 3
2024-11-23 16:27:18.886992: I external/xla/xla/hlo/ir/hlo_module.cc:559]       dimensions: 8
2024-11-23 16:27:18.886996: I external/xla/xla/hlo/ir/hlo_module.cc:559]       layout {
2024-11-23 16:27:18.887000: I external/xla/xla/hlo/ir/hlo_module.cc:559]         minor_to_major: 1
2024-11-23 16:27:18.887005: I external/xla/xla/hlo/ir/hlo_module.cc:559]         minor_to_major: 0
2024-11-23 16:27:18.887009: I external/xla/xla/hlo/ir/hlo_module.cc:559]         tail_padding_alignment_in_elements: 1
2024-11-23 16:27:18.887013: I external/xla/xla/hlo/ir/hlo_module.cc:559]       }
2024-11-23 16:27:18.887017: I external/xla/xla/hlo/ir/hlo_module.cc:559]       is_dynamic_dimension: false
2024-11-23 16:27:18.887021: I external/xla/xla/hlo/ir/hlo_module.cc:559]       is_dynamic_dimension: false
2024-11-23 16:27:18.887026: I external/xla/xla/hlo/ir/hlo_module.cc:559]     }
2024-11-23 16:27:18.887030: I external/xla/xla/hlo/ir/hlo_module.cc:559]     metadata {
2024-11-23 16:27:18.887034: I external/xla/xla/hlo/ir/hlo_module.cc:559]       op_name: "aten__einsum"
2024-11-23 16:27:18.887039: I external/xla/xla/hlo/ir/hlo_module.cc:559]       source_file: "/usr/local/lib/python3.10/dist-packages/torch/functional.py"
2024-11-23 16:27:18.887044: I external/xla/xla/hlo/ir/hlo_module.cc:559]       source_line: 402
2024-11-23 16:27:18.887048: I external/xla/xla/hlo/ir/hlo_module.cc:559]       stack_frame_id: 2
2024-11-23 16:27:18.887052: I external/xla/xla/hlo/ir/hlo_module.cc:559]     }
2024-11-23 16:27:18.887056: I external/xla/xla/hlo/ir/hlo_module.cc:559]     dot_dimension_numbers {
2024-11-23 16:27:18.887061: I external/xla/xla/hlo/ir/hlo_module.cc:559]       lhs_contracting_dimensions: 1
2024-11-23 16:27:18.887065: I external/xla/xla/hlo/ir/hlo_module.cc:559]       rhs_contracting_dimensions: 0
2024-11-23 16:27:18.887072: I external/xla/xla/hlo/ir/hlo_module.cc:559]     }
2024-11-23 16:27:18.887077: I external/xla/xla/hlo/ir/hlo_module.cc:559]     id: 3
2024-11-23 16:27:18.887081: I external/xla/xla/hlo/ir/hlo_module.cc:559]     operand_ids: 2
2024-11-23 16:27:18.887085: I external/xla/xla/hlo/ir/hlo_module.cc:559]     operand_ids: 1
2024-11-23 16:27:18.887089: I external/xla/xla/hlo/ir/hlo_module.cc:559]     precision_config {
2024-11-23 16:27:18.887094: I external/xla/xla/hlo/ir/hlo_module.cc:559]       operand_precision: DEFAULT
2024-11-23 16:27:18.887098: I external/xla/xla/hlo/ir/hlo_module.cc:559]       operand_precision: DEFAULT
2024-11-23 16:27:18.887102: I external/xla/xla/hlo/ir/hlo_module.cc:559]     }
2024-11-23 16:27:18.887106: I external/xla/xla/hlo/ir/hlo_module.cc:559]     frontend_attributes {
2024-11-23 16:27:18.887111: I external/xla/xla/hlo/ir/hlo_module.cc:559]     }
2024-11-23 16:27:18.887115: I external/xla/xla/hlo/ir/hlo_module.cc:559]   }
2024-11-23 16:27:18.887119: I external/xla/xla/hlo/ir/hlo_module.cc:559]   instructions {
2024-11-23 16:27:18.887123: I external/xla/xla/hlo/ir/hlo_module.cc:559]     name: "add.4"
2024-11-23 16:27:18.887127: I external/xla/xla/hlo/ir/hlo_module.cc:559]     opcode: "add"
2024-11-23 16:27:18.887131: I external/xla/xla/hlo/ir/hlo_module.cc:559]     shape {
2024-11-23 16:27:18.887136: I external/xla/xla/hlo/ir/hlo_module.cc:559]       element_type: F32
2024-11-23 16:27:18.887140: I external/xla/xla/hlo/ir/hlo_module.cc:559]       dimensions: 3
2024-11-23 16:27:18.887144: I external/xla/xla/hlo/ir/hlo_module.cc:559]       dimensions: 8
2024-11-23 16:27:18.887148: I external/xla/xla/hlo/ir/hlo_module.cc:559]       layout {
2024-11-23 16:27:18.887152: I external/xla/xla/hlo/ir/hlo_module.cc:559]         minor_to_major: 1
2024-11-23 16:27:18.887157: I external/xla/xla/hlo/ir/hlo_module.cc:559]         minor_to_major: 0
2024-11-23 16:27:18.887161: I external/xla/xla/hlo/ir/hlo_module.cc:559]         tail_padding_alignment_in_elements: 1
2024-11-23 16:27:18.887165: I external/xla/xla/hlo/ir/hlo_module.cc:559]       }
2024-11-23 16:27:18.887169: I external/xla/xla/hlo/ir/hlo_module.cc:559]       is_dynamic_dimension: false
2024-11-23 16:27:18.887173: I external/xla/xla/hlo/ir/hlo_module.cc:559]       is_dynamic_dimension: false
2024-11-23 16:27:18.887178: I external/xla/xla/hlo/ir/hlo_module.cc:559]     }
2024-11-23 16:27:18.887182: I external/xla/xla/hlo/ir/hlo_module.cc:559]     metadata {
2024-11-23 16:27:18.887186: I external/xla/xla/hlo/ir/hlo_module.cc:559]       op_name: "aten__add.1/aten__add"
2024-11-23 16:27:18.887190: I external/xla/xla/hlo/ir/hlo_module.cc:559]       source_file: "/root/xla/lzy.py"
2024-11-23 16:27:18.887195: I external/xla/xla/hlo/ir/hlo_module.cc:559]       source_line: 13
2024-11-23 16:27:18.887199: I external/xla/xla/hlo/ir/hlo_module.cc:559]       stack_frame_id: 3
2024-11-23 16:27:18.887203: I external/xla/xla/hlo/ir/hlo_module.cc:559]     }
2024-11-23 16:27:18.887207: I external/xla/xla/hlo/ir/hlo_module.cc:559]     id: 4
2024-11-23 16:27:18.887211: I external/xla/xla/hlo/ir/hlo_module.cc:559]     operand_ids: 3
2024-11-23 16:27:18.887216: I external/xla/xla/hlo/ir/hlo_module.cc:559]     operand_ids: 1
2024-11-23 16:27:18.887220: I external/xla/xla/hlo/ir/hlo_module.cc:559]     frontend_attributes {
2024-11-23 16:27:18.887224: I external/xla/xla/hlo/ir/hlo_module.cc:559]     }
2024-11-23 16:27:18.887228: I external/xla/xla/hlo/ir/hlo_module.cc:559]   }
2024-11-23 16:27:18.887232: I external/xla/xla/hlo/ir/hlo_module.cc:559]   program_shape {
2024-11-23 16:27:18.887237: I external/xla/xla/hlo/ir/hlo_module.cc:559]     parameters {
2024-11-23 16:27:18.887241: I external/xla/xla/hlo/ir/hlo_module.cc:559]       element_type: F32
2024-11-23 16:27:18.887245: I external/xla/xla/hlo/ir/hlo_module.cc:559]       dimensions: 3
2024-11-23 16:27:18.887249: I external/xla/xla/hlo/ir/hlo_module.cc:559]       dimensions: 8
2024-11-23 16:27:18.887254: I external/xla/xla/hlo/ir/hlo_module.cc:559]       layout {
2024-11-23 16:27:18.887260: I external/xla/xla/hlo/ir/hlo_module.cc:559]         minor_to_major: 1
2024-11-23 16:27:18.887265: I external/xla/xla/hlo/ir/hlo_module.cc:559]         minor_to_major: 0
2024-11-23 16:27:18.887269: I external/xla/xla/hlo/ir/hlo_module.cc:559]         tail_padding_alignment_in_elements: 1
2024-11-23 16:27:18.887273: I external/xla/xla/hlo/ir/hlo_module.cc:559]       }
2024-11-23 16:27:18.887278: I external/xla/xla/hlo/ir/hlo_module.cc:559]       is_dynamic_dimension: false
2024-11-23 16:27:18.887282: I external/xla/xla/hlo/ir/hlo_module.cc:559]       is_dynamic_dimension: false
2024-11-23 16:27:18.887286: I external/xla/xla/hlo/ir/hlo_module.cc:559]     }
2024-11-23 16:27:18.887290: I external/xla/xla/hlo/ir/hlo_module.cc:559]     parameters {
2024-11-23 16:27:18.887294: I external/xla/xla/hlo/ir/hlo_module.cc:559]       element_type: F32
2024-11-23 16:27:18.887299: I external/xla/xla/hlo/ir/hlo_module.cc:559]       dimensions: 3
2024-11-23 16:27:18.887303: I external/xla/xla/hlo/ir/hlo_module.cc:559]       dimensions: 3
2024-11-23 16:27:18.887307: I external/xla/xla/hlo/ir/hlo_module.cc:559]       layout {
2024-11-23 16:27:18.887311: I external/xla/xla/hlo/ir/hlo_module.cc:559]         minor_to_major: 1
2024-11-23 16:27:18.887315: I external/xla/xla/hlo/ir/hlo_module.cc:559]         minor_to_major: 0
2024-11-23 16:27:18.887319: I external/xla/xla/hlo/ir/hlo_module.cc:559]         tail_padding_alignment_in_elements: 1
2024-11-23 16:27:18.887323: I external/xla/xla/hlo/ir/hlo_module.cc:559]       }
2024-11-23 16:27:18.887327: I external/xla/xla/hlo/ir/hlo_module.cc:559]       is_dynamic_dimension: false
2024-11-23 16:27:18.887331: I external/xla/xla/hlo/ir/hlo_module.cc:559]       is_dynamic_dimension: false
2024-11-23 16:27:18.887336: I external/xla/xla/hlo/ir/hlo_module.cc:559]     }
2024-11-23 16:27:18.887340: I external/xla/xla/hlo/ir/hlo_module.cc:559]     result {
2024-11-23 16:27:18.887344: I external/xla/xla/hlo/ir/hlo_module.cc:559]       element_type: F32
2024-11-23 16:27:18.887348: I external/xla/xla/hlo/ir/hlo_module.cc:559]       dimensions: 3
2024-11-23 16:27:18.887352: I external/xla/xla/hlo/ir/hlo_module.cc:559]       dimensions: 8
2024-11-23 16:27:18.887356: I external/xla/xla/hlo/ir/hlo_module.cc:559]       layout {
2024-11-23 16:27:18.887361: I external/xla/xla/hlo/ir/hlo_module.cc:559]         minor_to_major: 1
2024-11-23 16:27:18.887365: I external/xla/xla/hlo/ir/hlo_module.cc:559]         minor_to_major: 0
2024-11-23 16:27:18.887369: I external/xla/xla/hlo/ir/hlo_module.cc:559]         tail_padding_alignment_in_elements: 1
2024-11-23 16:27:18.887373: I external/xla/xla/hlo/ir/hlo_module.cc:559]       }
2024-11-23 16:27:18.887377: I external/xla/xla/hlo/ir/hlo_module.cc:559]       is_dynamic_dimension: false
2024-11-23 16:27:18.887381: I external/xla/xla/hlo/ir/hlo_module.cc:559]       is_dynamic_dimension: false
2024-11-23 16:27:18.887385: I external/xla/xla/hlo/ir/hlo_module.cc:559]     }
2024-11-23 16:27:18.887389: I external/xla/xla/hlo/ir/hlo_module.cc:559]     parameter_names: "Arg_0"
2024-11-23 16:27:18.887394: I external/xla/xla/hlo/ir/hlo_module.cc:559]     parameter_names: "Arg_1"
2024-11-23 16:27:18.887398: I external/xla/xla/hlo/ir/hlo_module.cc:559]   }
2024-11-23 16:27:18.887402: I external/xla/xla/hlo/ir/hlo_module.cc:559]   id: 5
2024-11-23 16:27:18.887406: I external/xla/xla/hlo/ir/hlo_module.cc:559]   root_id: 4
2024-11-23 16:27:18.887410: I external/xla/xla/hlo/ir/hlo_module.cc:559] }
2024-11-23 16:27:18.887415: I external/xla/xla/hlo/ir/hlo_module.cc:559] host_program_shape {
2024-11-23 16:27:18.887419: I external/xla/xla/hlo/ir/hlo_module.cc:559]   parameters {
2024-11-23 16:27:18.887423: I external/xla/xla/hlo/ir/hlo_module.cc:559]     element_type: F32
2024-11-23 16:27:18.887428: I external/xla/xla/hlo/ir/hlo_module.cc:559]     dimensions: 3
2024-11-23 16:27:18.887432: I external/xla/xla/hlo/ir/hlo_module.cc:559]     dimensions: 8
2024-11-23 16:27:18.887436: I external/xla/xla/hlo/ir/hlo_module.cc:559]     layout {
2024-11-23 16:27:18.887443: I external/xla/xla/hlo/ir/hlo_module.cc:559]       minor_to_major: 1
2024-11-23 16:27:18.887447: I external/xla/xla/hlo/ir/hlo_module.cc:559]       minor_to_major: 0
2024-11-23 16:27:18.887451: I external/xla/xla/hlo/ir/hlo_module.cc:559]       tail_padding_alignment_in_elements: 1
2024-11-23 16:27:18.887455: I external/xla/xla/hlo/ir/hlo_module.cc:559]     }
2024-11-23 16:27:18.887459: I external/xla/xla/hlo/ir/hlo_module.cc:559]     is_dynamic_dimension: false
2024-11-23 16:27:18.887464: I external/xla/xla/hlo/ir/hlo_module.cc:559]     is_dynamic_dimension: false
2024-11-23 16:27:18.887468: I external/xla/xla/hlo/ir/hlo_module.cc:559]   }
2024-11-23 16:27:18.887472: I external/xla/xla/hlo/ir/hlo_module.cc:559]   parameters {
2024-11-23 16:27:18.887476: I external/xla/xla/hlo/ir/hlo_module.cc:559]     element_type: F32
2024-11-23 16:27:18.887480: I external/xla/xla/hlo/ir/hlo_module.cc:559]     dimensions: 3
2024-11-23 16:27:18.887485: I external/xla/xla/hlo/ir/hlo_module.cc:559]     dimensions: 3
2024-11-23 16:27:18.887489: I external/xla/xla/hlo/ir/hlo_module.cc:559]     layout {
2024-11-23 16:27:18.887493: I external/xla/xla/hlo/ir/hlo_module.cc:559]       minor_to_major: 1
2024-11-23 16:27:18.887497: I external/xla/xla/hlo/ir/hlo_module.cc:559]       minor_to_major: 0
2024-11-23 16:27:18.887501: I external/xla/xla/hlo/ir/hlo_module.cc:559]       tail_padding_alignment_in_elements: 1
2024-11-23 16:27:18.887506: I external/xla/xla/hlo/ir/hlo_module.cc:559]     }
2024-11-23 16:27:18.887510: I external/xla/xla/hlo/ir/hlo_module.cc:559]     is_dynamic_dimension: false
2024-11-23 16:27:18.887514: I external/xla/xla/hlo/ir/hlo_module.cc:559]     is_dynamic_dimension: false
2024-11-23 16:27:18.887519: I external/xla/xla/hlo/ir/hlo_module.cc:559]   }
2024-11-23 16:27:18.887523: I external/xla/xla/hlo/ir/hlo_module.cc:559]   result {
2024-11-23 16:27:18.887527: I external/xla/xla/hlo/ir/hlo_module.cc:559]     element_type: F32
2024-11-23 16:27:18.887531: I external/xla/xla/hlo/ir/hlo_module.cc:559]     dimensions: 3
2024-11-23 16:27:18.887535: I external/xla/xla/hlo/ir/hlo_module.cc:559]     dimensions: 8
2024-11-23 16:27:18.887540: I external/xla/xla/hlo/ir/hlo_module.cc:559]     layout {
2024-11-23 16:27:18.887544: I external/xla/xla/hlo/ir/hlo_module.cc:559]       minor_to_major: 1
2024-11-23 16:27:18.887548: I external/xla/xla/hlo/ir/hlo_module.cc:559]       minor_to_major: 0
2024-11-23 16:27:18.887552: I external/xla/xla/hlo/ir/hlo_module.cc:559]       tail_padding_alignment_in_elements: 1
2024-11-23 16:27:18.887557: I external/xla/xla/hlo/ir/hlo_module.cc:559]     }
2024-11-23 16:27:18.887561: I external/xla/xla/hlo/ir/hlo_module.cc:559]     is_dynamic_dimension: false
2024-11-23 16:27:18.887565: I external/xla/xla/hlo/ir/hlo_module.cc:559]     is_dynamic_dimension: false
2024-11-23 16:27:18.887569: I external/xla/xla/hlo/ir/hlo_module.cc:559]   }
2024-11-23 16:27:18.887573: I external/xla/xla/hlo/ir/hlo_module.cc:559]   parameter_names: "Arg_0"
2024-11-23 16:27:18.887578: I external/xla/xla/hlo/ir/hlo_module.cc:559]   parameter_names: "Arg_1"
2024-11-23 16:27:18.887582: I external/xla/xla/hlo/ir/hlo_module.cc:559] }
2024-11-23 16:27:18.887586: I external/xla/xla/hlo/ir/hlo_module.cc:559] id: 5
2024-11-23 16:27:18.887590: I external/xla/xla/hlo/ir/hlo_module.cc:559] entry_computation_id: 5
2024-11-23 16:27:18.887595: I external/xla/xla/hlo/ir/hlo_module.cc:559] stack_frame_index {
2024-11-23 16:27:18.887599: I external/xla/xla/hlo/ir/hlo_module.cc:559]   file_names: "/root/xla/lzy.py"
2024-11-23 16:27:18.887603: I external/xla/xla/hlo/ir/hlo_module.cc:559]   file_names: "/usr/local/lib/python3.10/dist-packages/torch/functional.py"
2024-11-23 16:27:18.887607: I external/xla/xla/hlo/ir/hlo_module.cc:559]   function_names: "<module>"
2024-11-23 16:27:18.887612: I external/xla/xla/hlo/ir/hlo_module.cc:559]   function_names: "einsum"
2024-11-23 16:27:18.887616: I external/xla/xla/hlo/ir/hlo_module.cc:559]   file_locations {
2024-11-23 16:27:18.887620: I external/xla/xla/hlo/ir/hlo_module.cc:559]     file_name_id: 1
2024-11-23 16:27:18.887626: I external/xla/xla/hlo/ir/hlo_module.cc:559]     function_name_id: 1
2024-11-23 16:27:18.887631: I external/xla/xla/hlo/ir/hlo_module.cc:559]     line: 10
2024-11-23 16:27:18.887635: I external/xla/xla/hlo/ir/hlo_module.cc:559]   }
2024-11-23 16:27:18.887639: I external/xla/xla/hlo/ir/hlo_module.cc:559]   file_locations {
2024-11-23 16:27:18.887643: I external/xla/xla/hlo/ir/hlo_module.cc:559]     file_name_id: 2
2024-11-23 16:27:18.887647: I external/xla/xla/hlo/ir/hlo_module.cc:559]     function_name_id: 2
2024-11-23 16:27:18.887651: I external/xla/xla/hlo/ir/hlo_module.cc:559]     line: 402
2024-11-23 16:27:18.887656: I external/xla/xla/hlo/ir/hlo_module.cc:559]   }
2024-11-23 16:27:18.887660: I external/xla/xla/hlo/ir/hlo_module.cc:559]   file_locations {
2024-11-23 16:27:18.887665: I external/xla/xla/hlo/ir/hlo_module.cc:559]     file_name_id: 1
2024-11-23 16:27:18.887669: I external/xla/xla/hlo/ir/hlo_module.cc:559]     function_name_id: 1
2024-11-23 16:27:18.887673: I external/xla/xla/hlo/ir/hlo_module.cc:559]     line: 13
2024-11-23 16:27:18.887677: I external/xla/xla/hlo/ir/hlo_module.cc:559]   }
2024-11-23 16:27:18.887681: I external/xla/xla/hlo/ir/hlo_module.cc:559]   stack_frames {
2024-11-23 16:27:18.887685: I external/xla/xla/hlo/ir/hlo_module.cc:559]     file_location_id: 1
2024-11-23 16:27:18.887690: I external/xla/xla/hlo/ir/hlo_module.cc:559]   }
2024-11-23 16:27:18.887694: I external/xla/xla/hlo/ir/hlo_module.cc:559]   stack_frames {
2024-11-23 16:27:18.887698: I external/xla/xla/hlo/ir/hlo_module.cc:559]     file_location_id: 2
2024-11-23 16:27:18.887702: I external/xla/xla/hlo/ir/hlo_module.cc:559]     parent_frame_id: 1
2024-11-23 16:27:18.887707: I external/xla/xla/hlo/ir/hlo_module.cc:559]   }
2024-11-23 16:27:18.887711: I external/xla/xla/hlo/ir/hlo_module.cc:559]   stack_frames {
2024-11-23 16:27:18.887715: I external/xla/xla/hlo/ir/hlo_module.cc:559]     file_location_id: 3
2024-11-23 16:27:18.887720: I external/xla/xla/hlo/ir/hlo_module.cc:559]   }
2024-11-23 16:27:18.887724: I external/xla/xla/hlo/ir/hlo_module.cc:559] }
2024-11-23 16:27:18.887742: I external/xla/xla/shape_util.cc:1024] Validating shape size: f32[3,8]
2024-11-23 16:27:18.887749: I external/xla/xla/shape_util.cc:1040] Shape size is valid: 96
2024-11-23 16:27:18.887772: I external/xla/xla/shape_util.cc:1024] Validating shape size: f32[3,3]
2024-11-23 16:27:18.887777: I external/xla/xla/shape_util.cc:1040] Shape size is valid: 36
2024-11-23 16:27:18.887784: I external/xla/xla/shape_util.cc:1024] Validating shape size: f32[3,8]
2024-11-23 16:27:18.887789: I external/xla/xla/shape_util.cc:1040] Shape size is valid: 96
2024-11-23 16:27:18.887802: I external/xla/xla/shape_util.cc:1024] Validating shape size: f32[3,8]
2024-11-23 16:27:18.887806: I external/xla/xla/shape_util.cc:1040] Shape size is valid: 96
2024-11-23 16:27:18.887819: I external/xla/xla/hlo/ir/hlo_computation.cc:244] Adding instruction 0x60b0a7ed8bb0 Arg_0.1 from computation main.5 opcode parameter
2024-11-23 16:27:18.887824: I external/xla/xla/hlo/ir/hlo_computation.cc:244] Adding instruction 0x60b0a7f181d0 Arg_1.2 from computation main.5 opcode parameter
2024-11-23 16:27:18.887829: I external/xla/xla/hlo/ir/hlo_computation.cc:244] Adding instruction 0x60b0a7f184e0 dot.3 from computation main.5 opcode dot
2024-11-23 16:27:18.887834: I external/xla/xla/hlo/ir/hlo_computation.cc:244] Adding instruction 0x60b0a7e42680 add.4 from computation main.5 opcode add
2024-11-23 16:27:18.887939: I external/xla/xla/pjrt/utils.cc:171] Compile device_assignment:
Computations: 1 Replicas: 1
Computation 0: 0 

2024-11-23 16:27:18.887973: I external/xla/xla/shape_util.cc:1024] Validating shape size: f32[3,8]
2024-11-23 16:27:18.887978: I external/xla/xla/shape_util.cc:1040] Shape size is valid: 96
2024-11-23 16:27:18.887987: I external/xla/xla/hlo/ir/hlo_module.cc:558] CreateFromProto()
2024-11-23 16:27:18.888074: I external/xla/xla/hlo/ir/hlo_module.cc:559] name: "SyncTensorsGraph.10"
2024-11-23 16:27:18.888079: I external/xla/xla/hlo/ir/hlo_module.cc:559] entry_computation_name: "main.5"
2024-11-23 16:27:18.888088: I external/xla/xla/hlo/ir/hlo_module.cc:559] computations {
2024-11-23 16:27:18.888092: I external/xla/xla/hlo/ir/hlo_module.cc:559]   name: "main.5"
2024-11-23 16:27:18.888097: I external/xla/xla/hlo/ir/hlo_module.cc:559]   instructions {
2024-11-23 16:27:18.888101: I external/xla/xla/hlo/ir/hlo_module.cc:559]     name: "Arg_1.2"
2024-11-23 16:27:18.888105: I external/xla/xla/hlo/ir/hlo_module.cc:559]     opcode: "parameter"
2024-11-23 16:27:18.888110: I external/xla/xla/hlo/ir/hlo_module.cc:559]     shape {
2024-11-23 16:27:18.888114: I external/xla/xla/hlo/ir/hlo_module.cc:559]       element_type: F32
2024-11-23 16:27:18.888118: I external/xla/xla/hlo/ir/hlo_module.cc:559]       dimensions: 3
2024-11-23 16:27:18.888122: I external/xla/xla/hlo/ir/hlo_module.cc:559]       dimensions: 3
2024-11-23 16:27:18.888126: I external/xla/xla/hlo/ir/hlo_module.cc:559]       layout {
2024-11-23 16:27:18.888131: I external/xla/xla/hlo/ir/hlo_module.cc:559]         minor_to_major: 1
2024-11-23 16:27:18.888135: I external/xla/xla/hlo/ir/hlo_module.cc:559]         minor_to_major: 0
2024-11-23 16:27:18.888139: I external/xla/xla/hlo/ir/hlo_module.cc:559]         tail_padding_alignment_in_elements: 1
2024-11-23 16:27:18.888143: I external/xla/xla/hlo/ir/hlo_module.cc:559]       }
2024-11-23 16:27:18.888147: I external/xla/xla/hlo/ir/hlo_module.cc:559]       is_dynamic_dimension: false
2024-11-23 16:27:18.888152: I external/xla/xla/hlo/ir/hlo_module.cc:559]       is_dynamic_dimension: false
2024-11-23 16:27:18.888156: I external/xla/xla/hlo/ir/hlo_module.cc:559]     }
2024-11-23 16:27:18.888160: I external/xla/xla/hlo/ir/hlo_module.cc:559]     metadata {
2024-11-23 16:27:18.888164: I external/xla/xla/hlo/ir/hlo_module.cc:559]       op_name: "xla__device_data"
2024-11-23 16:27:18.888169: I external/xla/xla/hlo/ir/hlo_module.cc:559]     }
2024-11-23 16:27:18.888173: I external/xla/xla/hlo/ir/hlo_module.cc:559]     parameter_number: 1
2024-11-23 16:27:18.888177: I external/xla/xla/hlo/ir/hlo_module.cc:559]     id: 2
2024-11-23 16:27:18.888181: I external/xla/xla/hlo/ir/hlo_module.cc:559]     frontend_attributes {
2024-11-23 16:27:18.888186: I external/xla/xla/hlo/ir/hlo_module.cc:559]     }
2024-11-23 16:27:18.888190: I external/xla/xla/hlo/ir/hlo_module.cc:559]     statistics_viz {
2024-11-23 16:27:18.888194: I external/xla/xla/hlo/ir/hlo_module.cc:559]     }
2024-11-23 16:27:18.888199: I external/xla/xla/hlo/ir/hlo_module.cc:559]   }
2024-11-23 16:27:18.888203: I external/xla/xla/hlo/ir/hlo_module.cc:559]   instructions {
2024-11-23 16:27:18.888207: I external/xla/xla/hlo/ir/hlo_module.cc:559]     name: "Arg_0.1"
2024-11-23 16:27:18.888212: I external/xla/xla/hlo/ir/hlo_module.cc:559]     opcode: "parameter"
2024-11-23 16:27:18.888216: I external/xla/xla/hlo/ir/hlo_module.cc:559]     shape {
2024-11-23 16:27:18.888220: I external/xla/xla/hlo/ir/hlo_module.cc:559]       element_type: F32
2024-11-23 16:27:18.888224: I external/xla/xla/hlo/ir/hlo_module.cc:559]       dimensions: 3
2024-11-23 16:27:18.888228: I external/xla/xla/hlo/ir/hlo_module.cc:559]       dimensions: 8
2024-11-23 16:27:18.888232: I external/xla/xla/hlo/ir/hlo_module.cc:559]       layout {
2024-11-23 16:27:18.888236: I external/xla/xla/hlo/ir/hlo_module.cc:559]         minor_to_major: 1
2024-11-23 16:27:18.888241: I external/xla/xla/hlo/ir/hlo_module.cc:559]         minor_to_major: 0
2024-11-23 16:27:18.888245: I external/xla/xla/hlo/ir/hlo_module.cc:559]         tail_padding_alignment_in_elements: 1
2024-11-23 16:27:18.888249: I external/xla/xla/hlo/ir/hlo_module.cc:559]       }
2024-11-23 16:27:18.888253: I external/xla/xla/hlo/ir/hlo_module.cc:559]       is_dynamic_dimension: false
2024-11-23 16:27:18.888257: I external/xla/xla/hlo/ir/hlo_module.cc:559]       is_dynamic_dimension: false
2024-11-23 16:27:18.888261: I external/xla/xla/hlo/ir/hlo_module.cc:559]     }
2024-11-23 16:27:18.888266: I external/xla/xla/hlo/ir/hlo_module.cc:559]     metadata {
2024-11-23 16:27:18.888270: I external/xla/xla/hlo/ir/hlo_module.cc:559]       op_name: "xla__device_data"
2024-11-23 16:27:18.888277: I external/xla/xla/hlo/ir/hlo_module.cc:559]     }
2024-11-23 16:27:18.888282: I external/xla/xla/hlo/ir/hlo_module.cc:559]     id: 1
2024-11-23 16:27:18.888286: I external/xla/xla/hlo/ir/hlo_module.cc:559]     frontend_attributes {
2024-11-23 16:27:18.888290: I external/xla/xla/hlo/ir/hlo_module.cc:559]     }
2024-11-23 16:27:18.888295: I external/xla/xla/hlo/ir/hlo_module.cc:559]     statistics_viz {
2024-11-23 16:27:18.888299: I external/xla/xla/hlo/ir/hlo_module.cc:559]     }
2024-11-23 16:27:18.888303: I external/xla/xla/hlo/ir/hlo_module.cc:559]   }
2024-11-23 16:27:18.888307: I external/xla/xla/hlo/ir/hlo_module.cc:559]   instructions {
2024-11-23 16:27:18.888311: I external/xla/xla/hlo/ir/hlo_module.cc:559]     name: "dot.3"
2024-11-23 16:27:18.888316: I external/xla/xla/hlo/ir/hlo_module.cc:559]     opcode: "dot"
2024-11-23 16:27:18.888320: I external/xla/xla/hlo/ir/hlo_module.cc:559]     shape {
2024-11-23 16:27:18.888324: I external/xla/xla/hlo/ir/hlo_module.cc:559]       element_type: F32
2024-11-23 16:27:18.888329: I external/xla/xla/hlo/ir/hlo_module.cc:559]       dimensions: 3
2024-11-23 16:27:18.888333: I external/xla/xla/hlo/ir/hlo_module.cc:559]       dimensions: 8
2024-11-23 16:27:18.888337: I external/xla/xla/hlo/ir/hlo_module.cc:559]       layout {
2024-11-23 16:27:18.888341: I external/xla/xla/hlo/ir/hlo_module.cc:559]         minor_to_major: 1
2024-11-23 16:27:18.888346: I external/xla/xla/hlo/ir/hlo_module.cc:559]         minor_to_major: 0
2024-11-23 16:27:18.888350: I external/xla/xla/hlo/ir/hlo_module.cc:559]         tail_padding_alignment_in_elements: 1
2024-11-23 16:27:18.888354: I external/xla/xla/hlo/ir/hlo_module.cc:559]       }
2024-11-23 16:27:18.888359: I external/xla/xla/hlo/ir/hlo_module.cc:559]       is_dynamic_dimension: false
2024-11-23 16:27:18.888363: I external/xla/xla/hlo/ir/hlo_module.cc:559]       is_dynamic_dimension: false
2024-11-23 16:27:18.888367: I external/xla/xla/hlo/ir/hlo_module.cc:559]     }
2024-11-23 16:27:18.888371: I external/xla/xla/hlo/ir/hlo_module.cc:559]     metadata {
2024-11-23 16:27:18.888376: I external/xla/xla/hlo/ir/hlo_module.cc:559]       op_name: "aten__einsum"
2024-11-23 16:27:18.888380: I external/xla/xla/hlo/ir/hlo_module.cc:559]       source_file: "/usr/local/lib/python3.10/dist-packages/torch/functional.py"
2024-11-23 16:27:18.888384: I external/xla/xla/hlo/ir/hlo_module.cc:559]       source_line: 402
2024-11-23 16:27:18.888388: I external/xla/xla/hlo/ir/hlo_module.cc:559]       stack_frame_id: 2
2024-11-23 16:27:18.888393: I external/xla/xla/hlo/ir/hlo_module.cc:559]     }
2024-11-23 16:27:18.888397: I external/xla/xla/hlo/ir/hlo_module.cc:559]     dot_dimension_numbers {
2024-11-23 16:27:18.888401: I external/xla/xla/hlo/ir/hlo_module.cc:559]       lhs_contracting_dimensions: 1
2024-11-23 16:27:18.888405: I external/xla/xla/hlo/ir/hlo_module.cc:559]       rhs_contracting_dimensions: 0
2024-11-23 16:27:18.888409: I external/xla/xla/hlo/ir/hlo_module.cc:559]     }
2024-11-23 16:27:18.888413: I external/xla/xla/hlo/ir/hlo_module.cc:559]     id: 3
2024-11-23 16:27:18.888418: I external/xla/xla/hlo/ir/hlo_module.cc:559]     operand_ids: 2
2024-11-23 16:27:18.888422: I external/xla/xla/hlo/ir/hlo_module.cc:559]     operand_ids: 1
2024-11-23 16:27:18.888426: I external/xla/xla/hlo/ir/hlo_module.cc:559]     precision_config {
2024-11-23 16:27:18.888430: I external/xla/xla/hlo/ir/hlo_module.cc:559]       operand_precision: DEFAULT
2024-11-23 16:27:18.888435: I external/xla/xla/hlo/ir/hlo_module.cc:559]       operand_precision: DEFAULT
2024-11-23 16:27:18.888439: I external/xla/xla/hlo/ir/hlo_module.cc:559]     }
2024-11-23 16:27:18.888443: I external/xla/xla/hlo/ir/hlo_module.cc:559]     frontend_attributes {
2024-11-23 16:27:18.888447: I external/xla/xla/hlo/ir/hlo_module.cc:559]     }
2024-11-23 16:27:18.888451: I external/xla/xla/hlo/ir/hlo_module.cc:559]     statistics_viz {
2024-11-23 16:27:18.888456: I external/xla/xla/hlo/ir/hlo_module.cc:559]     }
2024-11-23 16:27:18.888463: I external/xla/xla/hlo/ir/hlo_module.cc:559]   }
2024-11-23 16:27:18.888467: I external/xla/xla/hlo/ir/hlo_module.cc:559]   instructions {
2024-11-23 16:27:18.888476: I external/xla/xla/hlo/ir/hlo_module.cc:559]     name: "add.4"
2024-11-23 16:27:18.888481: I external/xla/xla/hlo/ir/hlo_module.cc:559]     opcode: "add"
2024-11-23 16:27:18.888485: I external/xla/xla/hlo/ir/hlo_module.cc:559]     shape {
2024-11-23 16:27:18.888489: I external/xla/xla/hlo/ir/hlo_module.cc:559]       element_type: F32
2024-11-23 16:27:18.888494: I external/xla/xla/hlo/ir/hlo_module.cc:559]       dimensions: 3
2024-11-23 16:27:18.888498: I external/xla/xla/hlo/ir/hlo_module.cc:559]       dimensions: 8
2024-11-23 16:27:18.888502: I external/xla/xla/hlo/ir/hlo_module.cc:559]       layout {
2024-11-23 16:27:18.888506: I external/xla/xla/hlo/ir/hlo_module.cc:559]         minor_to_major: 1
2024-11-23 16:27:18.888511: I external/xla/xla/hlo/ir/hlo_module.cc:559]         minor_to_major: 0
2024-11-23 16:27:18.888515: I external/xla/xla/hlo/ir/hlo_module.cc:559]         tail_padding_alignment_in_elements: 1
2024-11-23 16:27:18.888519: I external/xla/xla/hlo/ir/hlo_module.cc:559]       }
2024-11-23 16:27:18.888523: I external/xla/xla/hlo/ir/hlo_module.cc:559]       is_dynamic_dimension: false
2024-11-23 16:27:18.888528: I external/xla/xla/hlo/ir/hlo_module.cc:559]       is_dynamic_dimension: false
2024-11-23 16:27:18.888532: I external/xla/xla/hlo/ir/hlo_module.cc:559]     }
2024-11-23 16:27:18.888536: I external/xla/xla/hlo/ir/hlo_module.cc:559]     metadata {
2024-11-23 16:27:18.888540: I external/xla/xla/hlo/ir/hlo_module.cc:559]       op_name: "aten__add.1/aten__add"
2024-11-23 16:27:18.888544: I external/xla/xla/hlo/ir/hlo_module.cc:559]       source_file: "/root/xla/lzy.py"
2024-11-23 16:27:18.888549: I external/xla/xla/hlo/ir/hlo_module.cc:559]       source_line: 13
2024-11-23 16:27:18.888553: I external/xla/xla/hlo/ir/hlo_module.cc:559]       stack_frame_id: 3
2024-11-23 16:27:18.888557: I external/xla/xla/hlo/ir/hlo_module.cc:559]     }
2024-11-23 16:27:18.888562: I external/xla/xla/hlo/ir/hlo_module.cc:559]     id: 4
2024-11-23 16:27:18.888566: I external/xla/xla/hlo/ir/hlo_module.cc:559]     operand_ids: 3
2024-11-23 16:27:18.888570: I external/xla/xla/hlo/ir/hlo_module.cc:559]     operand_ids: 1
2024-11-23 16:27:18.888574: I external/xla/xla/hlo/ir/hlo_module.cc:559]     frontend_attributes {
2024-11-23 16:27:18.888579: I external/xla/xla/hlo/ir/hlo_module.cc:559]     }
2024-11-23 16:27:18.888583: I external/xla/xla/hlo/ir/hlo_module.cc:559]     statistics_viz {
2024-11-23 16:27:18.888587: I external/xla/xla/hlo/ir/hlo_module.cc:559]     }
2024-11-23 16:27:18.888591: I external/xla/xla/hlo/ir/hlo_module.cc:559]   }
2024-11-23 16:27:18.888596: I external/xla/xla/hlo/ir/hlo_module.cc:559]   program_shape {
2024-11-23 16:27:18.888600: I external/xla/xla/hlo/ir/hlo_module.cc:559]     parameters {
2024-11-23 16:27:18.888604: I external/xla/xla/hlo/ir/hlo_module.cc:559]       element_type: F32
2024-11-23 16:27:18.888608: I external/xla/xla/hlo/ir/hlo_module.cc:559]       dimensions: 3
2024-11-23 16:27:18.888613: I external/xla/xla/hlo/ir/hlo_module.cc:559]       dimensions: 8
2024-11-23 16:27:18.888617: I external/xla/xla/hlo/ir/hlo_module.cc:559]       layout {
2024-11-23 16:27:18.888621: I external/xla/xla/hlo/ir/hlo_module.cc:559]         minor_to_major: 1
2024-11-23 16:27:18.888625: I external/xla/xla/hlo/ir/hlo_module.cc:559]         minor_to_major: 0
2024-11-23 16:27:18.888630: I external/xla/xla/hlo/ir/hlo_module.cc:559]         tail_padding_alignment_in_elements: 1
2024-11-23 16:27:18.888634: I external/xla/xla/hlo/ir/hlo_module.cc:559]       }
2024-11-23 16:27:18.888638: I external/xla/xla/hlo/ir/hlo_module.cc:559]       is_dynamic_dimension: false
2024-11-23 16:27:18.888642: I external/xla/xla/hlo/ir/hlo_module.cc:559]       is_dynamic_dimension: false
2024-11-23 16:27:18.888647: I external/xla/xla/hlo/ir/hlo_module.cc:559]     }
2024-11-23 16:27:18.888651: I external/xla/xla/hlo/ir/hlo_module.cc:559]     parameters {
2024-11-23 16:27:18.888657: I external/xla/xla/hlo/ir/hlo_module.cc:559]       element_type: F32
2024-11-23 16:27:18.888662: I external/xla/xla/hlo/ir/hlo_module.cc:559]       dimensions: 3
2024-11-23 16:27:18.888666: I external/xla/xla/hlo/ir/hlo_module.cc:559]       dimensions: 3
2024-11-23 16:27:18.888670: I external/xla/xla/hlo/ir/hlo_module.cc:559]       layout {
2024-11-23 16:27:18.888675: I external/xla/xla/hlo/ir/hlo_module.cc:559]         minor_to_major: 1
2024-11-23 16:27:18.888679: I external/xla/xla/hlo/ir/hlo_module.cc:559]         minor_to_major: 0
2024-11-23 16:27:18.888683: I external/xla/xla/hlo/ir/hlo_module.cc:559]         tail_padding_alignment_in_elements: 1
2024-11-23 16:27:18.888688: I external/xla/xla/hlo/ir/hlo_module.cc:559]       }
2024-11-23 16:27:18.888692: I external/xla/xla/hlo/ir/hlo_module.cc:559]       is_dynamic_dimension: false
2024-11-23 16:27:18.888696: I external/xla/xla/hlo/ir/hlo_module.cc:559]       is_dynamic_dimension: false
2024-11-23 16:27:18.888701: I external/xla/xla/hlo/ir/hlo_module.cc:559]     }
2024-11-23 16:27:18.888705: I external/xla/xla/hlo/ir/hlo_module.cc:559]     result {
2024-11-23 16:27:18.888710: I external/xla/xla/hlo/ir/hlo_module.cc:559]       element_type: F32
2024-11-23 16:27:18.888714: I external/xla/xla/hlo/ir/hlo_module.cc:559]       dimensions: 3
2024-11-23 16:27:18.888718: I external/xla/xla/hlo/ir/hlo_module.cc:559]       dimensions: 8
2024-11-23 16:27:18.888722: I external/xla/xla/hlo/ir/hlo_module.cc:559]       layout {
2024-11-23 16:27:18.888727: I external/xla/xla/hlo/ir/hlo_module.cc:559]         minor_to_major: 1
2024-11-23 16:27:18.888731: I external/xla/xla/hlo/ir/hlo_module.cc:559]         minor_to_major: 0
2024-11-23 16:27:18.888735: I external/xla/xla/hlo/ir/hlo_module.cc:559]         tail_padding_alignment_in_elements: 1
2024-11-23 16:27:18.888739: I external/xla/xla/hlo/ir/hlo_module.cc:559]       }
2024-11-23 16:27:18.888744: I external/xla/xla/hlo/ir/hlo_module.cc:559]       is_dynamic_dimension: false
2024-11-23 16:27:18.888748: I external/xla/xla/hlo/ir/hlo_module.cc:559]       is_dynamic_dimension: false
2024-11-23 16:27:18.888752: I external/xla/xla/hlo/ir/hlo_module.cc:559]     }
2024-11-23 16:27:18.888757: I external/xla/xla/hlo/ir/hlo_module.cc:559]     parameter_names: "Arg_0.1"
2024-11-23 16:27:18.888761: I external/xla/xla/hlo/ir/hlo_module.cc:559]     parameter_names: "Arg_1.2"
2024-11-23 16:27:18.888765: I external/xla/xla/hlo/ir/hlo_module.cc:559]   }
2024-11-23 16:27:18.888769: I external/xla/xla/hlo/ir/hlo_module.cc:559]   id: 5
2024-11-23 16:27:18.888773: I external/xla/xla/hlo/ir/hlo_module.cc:559]   root_id: 4
2024-11-23 16:27:18.888777: I external/xla/xla/hlo/ir/hlo_module.cc:559] }
2024-11-23 16:27:18.888781: I external/xla/xla/hlo/ir/hlo_module.cc:559] host_program_shape {
2024-11-23 16:27:18.888785: I external/xla/xla/hlo/ir/hlo_module.cc:559]   parameters {
2024-11-23 16:27:18.888789: I external/xla/xla/hlo/ir/hlo_module.cc:559]     element_type: F32
2024-11-23 16:27:18.888793: I external/xla/xla/hlo/ir/hlo_module.cc:559]     dimensions: 3
2024-11-23 16:27:18.888796: I external/xla/xla/hlo/ir/hlo_module.cc:559]     dimensions: 8
2024-11-23 16:27:18.888800: I external/xla/xla/hlo/ir/hlo_module.cc:559]     layout {
2024-11-23 16:27:18.888804: I external/xla/xla/hlo/ir/hlo_module.cc:559]       minor_to_major: 1
2024-11-23 16:27:18.888808: I external/xla/xla/hlo/ir/hlo_module.cc:559]       minor_to_major: 0
2024-11-23 16:27:18.888813: I external/xla/xla/hlo/ir/hlo_module.cc:559]       tail_padding_alignment_in_elements: 1
2024-11-23 16:27:18.888817: I external/xla/xla/hlo/ir/hlo_module.cc:559]     }
2024-11-23 16:27:18.888821: I external/xla/xla/hlo/ir/hlo_module.cc:559]     is_dynamic_dimension: false
2024-11-23 16:27:18.888826: I external/xla/xla/hlo/ir/hlo_module.cc:559]     is_dynamic_dimension: false
2024-11-23 16:27:18.888830: I external/xla/xla/hlo/ir/hlo_module.cc:559]   }
2024-11-23 16:27:18.888834: I external/xla/xla/hlo/ir/hlo_module.cc:559]   parameters {
2024-11-23 16:27:18.888838: I external/xla/xla/hlo/ir/hlo_module.cc:559]     element_type: F32
2024-11-23 16:27:18.888848: I external/xla/xla/hlo/ir/hlo_module.cc:559]     dimensions: 3
2024-11-23 16:27:18.888852: I external/xla/xla/hlo/ir/hlo_module.cc:559]     dimensions: 3
2024-11-23 16:27:18.888857: I external/xla/xla/hlo/ir/hlo_module.cc:559]     layout {
2024-11-23 16:27:18.888861: I external/xla/xla/hlo/ir/hlo_module.cc:559]       minor_to_major: 1
2024-11-23 16:27:18.888866: I external/xla/xla/hlo/ir/hlo_module.cc:559]       minor_to_major: 0
2024-11-23 16:27:18.888870: I external/xla/xla/hlo/ir/hlo_module.cc:559]       tail_padding_alignment_in_elements: 1
2024-11-23 16:27:18.888874: I external/xla/xla/hlo/ir/hlo_module.cc:559]     }
2024-11-23 16:27:18.888878: I external/xla/xla/hlo/ir/hlo_module.cc:559]     is_dynamic_dimension: false
2024-11-23 16:27:18.888882: I external/xla/xla/hlo/ir/hlo_module.cc:559]     is_dynamic_dimension: false
2024-11-23 16:27:18.888886: I external/xla/xla/hlo/ir/hlo_module.cc:559]   }
2024-11-23 16:27:18.888891: I external/xla/xla/hlo/ir/hlo_module.cc:559]   result {
2024-11-23 16:27:18.888895: I external/xla/xla/hlo/ir/hlo_module.cc:559]     element_type: F32
2024-11-23 16:27:18.888899: I external/xla/xla/hlo/ir/hlo_module.cc:559]     dimensions: 3
2024-11-23 16:27:18.888903: I external/xla/xla/hlo/ir/hlo_module.cc:559]     dimensions: 8
2024-11-23 16:27:18.888907: I external/xla/xla/hlo/ir/hlo_module.cc:559]     layout {
2024-11-23 16:27:18.888912: I external/xla/xla/hlo/ir/hlo_module.cc:559]       minor_to_major: 1
2024-11-23 16:27:18.888916: I external/xla/xla/hlo/ir/hlo_module.cc:559]       minor_to_major: 0
2024-11-23 16:27:18.888920: I external/xla/xla/hlo/ir/hlo_module.cc:559]       tail_padding_alignment_in_elements: 1
2024-11-23 16:27:18.888925: I external/xla/xla/hlo/ir/hlo_module.cc:559]     }
2024-11-23 16:27:18.888929: I external/xla/xla/hlo/ir/hlo_module.cc:559]     is_dynamic_dimension: false
2024-11-23 16:27:18.888933: I external/xla/xla/hlo/ir/hlo_module.cc:559]     is_dynamic_dimension: false
2024-11-23 16:27:18.888937: I external/xla/xla/hlo/ir/hlo_module.cc:559]   }
2024-11-23 16:27:18.888942: I external/xla/xla/hlo/ir/hlo_module.cc:559]   parameter_names: "p0"
2024-11-23 16:27:18.888946: I external/xla/xla/hlo/ir/hlo_module.cc:559]   parameter_names: "p1"
2024-11-23 16:27:18.888950: I external/xla/xla/hlo/ir/hlo_module.cc:559] }
2024-11-23 16:27:18.888954: I external/xla/xla/hlo/ir/hlo_module.cc:559] id: 1
2024-11-23 16:27:18.888958: I external/xla/xla/hlo/ir/hlo_module.cc:559] entry_computation_id: 5
2024-11-23 16:27:18.888963: I external/xla/xla/hlo/ir/hlo_module.cc:559] input_output_alias {
2024-11-23 16:27:18.888967: I external/xla/xla/hlo/ir/hlo_module.cc:559] }
2024-11-23 16:27:18.888971: I external/xla/xla/hlo/ir/hlo_module.cc:559] stack_frame_index {
2024-11-23 16:27:18.888976: I external/xla/xla/hlo/ir/hlo_module.cc:559]   file_names: "/root/xla/lzy.py"
2024-11-23 16:27:18.888980: I external/xla/xla/hlo/ir/hlo_module.cc:559]   file_names: "/usr/local/lib/python3.10/dist-packages/torch/functional.py"
2024-11-23 16:27:18.888985: I external/xla/xla/hlo/ir/hlo_module.cc:559]   function_names: "<module>"
2024-11-23 16:27:18.888989: I external/xla/xla/hlo/ir/hlo_module.cc:559]   function_names: "einsum"
2024-11-23 16:27:18.888993: I external/xla/xla/hlo/ir/hlo_module.cc:559]   file_locations {
2024-11-23 16:27:18.888997: I external/xla/xla/hlo/ir/hlo_module.cc:559]     file_name_id: 1
2024-11-23 16:27:18.889002: I external/xla/xla/hlo/ir/hlo_module.cc:559]     function_name_id: 1
2024-11-23 16:27:18.889006: I external/xla/xla/hlo/ir/hlo_module.cc:559]     line: 10
2024-11-23 16:27:18.889010: I external/xla/xla/hlo/ir/hlo_module.cc:559]   }
2024-11-23 16:27:18.889014: I external/xla/xla/hlo/ir/hlo_module.cc:559]   file_locations {
2024-11-23 16:27:18.889019: I external/xla/xla/hlo/ir/hlo_module.cc:559]     file_name_id: 2
2024-11-23 16:27:18.889023: I external/xla/xla/hlo/ir/hlo_module.cc:559]     function_name_id: 2
2024-11-23 16:27:18.889027: I external/xla/xla/hlo/ir/hlo_module.cc:559]     line: 402
2024-11-23 16:27:18.889033: I external/xla/xla/hlo/ir/hlo_module.cc:559]   }
2024-11-23 16:27:18.889038: I external/xla/xla/hlo/ir/hlo_module.cc:559]   file_locations {
2024-11-23 16:27:18.889042: I external/xla/xla/hlo/ir/hlo_module.cc:559]     file_name_id: 1
2024-11-23 16:27:18.889046: I external/xla/xla/hlo/ir/hlo_module.cc:559]     function_name_id: 1
2024-11-23 16:27:18.889051: I external/xla/xla/hlo/ir/hlo_module.cc:559]     line: 13
2024-11-23 16:27:18.889055: I external/xla/xla/hlo/ir/hlo_module.cc:559]   }
2024-11-23 16:27:18.889059: I external/xla/xla/hlo/ir/hlo_module.cc:559]   stack_frames {
2024-11-23 16:27:18.889063: I external/xla/xla/hlo/ir/hlo_module.cc:559]     file_location_id: 1
2024-11-23 16:27:18.889067: I external/xla/xla/hlo/ir/hlo_module.cc:559]   }
2024-11-23 16:27:18.889072: I external/xla/xla/hlo/ir/hlo_module.cc:559]   stack_frames {
2024-11-23 16:27:18.889076: I external/xla/xla/hlo/ir/hlo_module.cc:559]     file_location_id: 2
2024-11-23 16:27:18.889081: I external/xla/xla/hlo/ir/hlo_module.cc:559]     parent_frame_id: 1
2024-11-23 16:27:18.889085: I external/xla/xla/hlo/ir/hlo_module.cc:559]   }
2024-11-23 16:27:18.889089: I external/xla/xla/hlo/ir/hlo_module.cc:559]   stack_frames {
2024-11-23 16:27:18.889093: I external/xla/xla/hlo/ir/hlo_module.cc:559]     file_location_id: 3
2024-11-23 16:27:18.889098: I external/xla/xla/hlo/ir/hlo_module.cc:559]   }
2024-11-23 16:27:18.889102: I external/xla/xla/hlo/ir/hlo_module.cc:559] }
2024-11-23 16:27:18.889107: I external/xla/xla/hlo/ir/hlo_module.cc:559] buffer_donor {
2024-11-23 16:27:18.889111: I external/xla/xla/hlo/ir/hlo_module.cc:559] }
2024-11-23 16:27:18.889115: I external/xla/xla/hlo/ir/hlo_module.cc:559] frontend_attributes {
2024-11-23 16:27:18.889119: I external/xla/xla/hlo/ir/hlo_module.cc:559] }
2024-11-23 16:27:18.889134: I external/xla/xla/shape_util.cc:1024] Validating shape size: f32[3,3]
2024-11-23 16:27:18.889140: I external/xla/xla/shape_util.cc:1040] Shape size is valid: 36
2024-11-23 16:27:18.889156: I external/xla/xla/shape_util.cc:1024] Validating shape size: f32[3,8]
2024-11-23 16:27:18.889161: I external/xla/xla/shape_util.cc:1040] Shape size is valid: 96
2024-11-23 16:27:18.889168: I external/xla/xla/shape_util.cc:1024] Validating shape size: f32[3,8]
2024-11-23 16:27:18.889172: I external/xla/xla/shape_util.cc:1040] Shape size is valid: 96
2024-11-23 16:27:18.889182: I external/xla/xla/shape_util.cc:1024] Validating shape size: f32[3,8]
2024-11-23 16:27:18.889187: I external/xla/xla/shape_util.cc:1040] Shape size is valid: 96
2024-11-23 16:27:18.889197: I external/xla/xla/hlo/ir/hlo_computation.cc:244] Adding instruction 0x60b0a7ed8bb0 Arg_0.1 from computation main.5 opcode parameter
2024-11-23 16:27:18.889202: I external/xla/xla/hlo/ir/hlo_computation.cc:244] Adding instruction 0x60b0a7f181d0 Arg_1.2 from computation main.5 opcode parameter
2024-11-23 16:27:18.889207: I external/xla/xla/hlo/ir/hlo_computation.cc:244] Adding instruction 0x60b0a7f184e0 dot.3 from computation main.5 opcode dot
2024-11-23 16:27:18.889211: I external/xla/xla/hlo/ir/hlo_computation.cc:244] Adding instruction 0x60b0a7e42680 add.4 from computation main.5 opcode add
2024-11-23 16:27:18.889279: I external/xla/xla/pjrt/cpu/cpu_client.cc:723] Unoptimized HLO module: HloModule SyncTensorsGraph.10, entry_computation_layout={(f32[3,8]{1,0}, f32[3,3]{1,0})->f32[3,8]{1,0}}

ENTRY %main.5 (Arg_0.1: f32[3,8], Arg_1.2: f32[3,3]) -> f32[3,8] {
  %Arg_1.2 = f32[3,3]{1,0} parameter(1), metadata={op_name="xla__device_data"}
  %Arg_0.1 = f32[3,8]{1,0} parameter(0), metadata={op_name="xla__device_data"}
  %dot.3 = f32[3,8]{1,0} dot(f32[3,3]{1,0} %Arg_1.2, f32[3,8]{1,0} %Arg_0.1), lhs_contracting_dims={1}, rhs_contracting_dims={0}, metadata={op_name="aten__einsum" source_file="/usr/local/lib/python3.10/dist-packages/torch/functional.py" source_line=402}
  ROOT %add.4 = f32[3,8]{1,0} add(f32[3,8]{1,0} %dot.3, f32[3,8]{1,0} %Arg_0.1), metadata={op_name="aten__add.1/aten__add" source_file="/root/xla/lzy.py" source_line=13}
}


2024-11-23 16:27:18.889524: I external/xla/xla/service/dump.cc:317] Dumping module_0002.SyncTensorsGraph.10.before_optimizations.txt to /tmp/dir_name
2024-11-23 16:27:18.889849: I external/xla/xla/service/dump.cc:544] HloModule dump enabled with path prefix: , suffix: before_optimizations
2024-11-23 16:27:18.890601: I external/xla/xla/service/cpu/cpu_compiler.cc:899] backend_optimization_level: 3
2024-11-23 16:27:18.891330: I external/xla/xla/service/hlo_pass_pipeline.cc:295] Running HLO pass pipeline on module SyncTensorsGraph.10: pre-spmd-pipeline
2024-11-23 16:27:18.891381: I external/xla/xla/service/hlo_pass_pipeline.cc:176]   HLO pass gather_scatter_normalizer
2024-11-23 16:27:18.891403: I external/xla/xla/service/hlo_pass_pipeline.cc:177]   Module hash 16325770853001495388
2024-11-23 16:27:18.891435: I external/xla/xla/service/hlo_pass_pipeline.cc:171] HLO pass: gather_scatter_normalizer time: 42 us (cumulative: 42 us, max: 42 us, #called: 1)
2024-11-23 16:27:18.891449: I external/xla/xla/service/hlo_pass_pipeline.cc:295] Running HLO pass pipeline on module SyncTensorsGraph.10: sharding-removal
2024-11-23 16:27:18.891470: I external/xla/xla/service/hlo_pass_pipeline.cc:109]     Invariant checker hlo-verifier
2024-11-23 16:27:18.891492: I external/xla/xla/hlo/ir/hlo_computation.cc:1492] Unreachable roots:
2024-11-23 16:27:18.891507: I external/xla/xla/hlo/ir/hlo_instruction.cc:4582] HloInstruction::Accept(%add.4)
2024-11-23 16:27:18.891604: I external/xla/xla/hlo/ir/hlo_instruction.cc:4516] Visiting HLO %Arg_1.2
2024-11-23 16:27:18.891625: I external/xla/xla/hlo/ir/hlo_instruction.cc:4516] Visiting HLO %Arg_0.1
2024-11-23 16:27:18.891633: I external/xla/xla/hlo/ir/hlo_instruction.cc:4516] Visiting HLO %dot.3
2024-11-23 16:27:18.891663: I external/xla/xla/service/shape_inference.cc:972] inferred dot shape: f32[3,8]
2024-11-23 16:27:18.891677: I external/xla/xla/hlo/ir/hlo_instruction.cc:4507] Not visiting HLO (id = 1) as it was already visited.
2024-11-23 16:27:18.891685: I external/xla/xla/hlo/ir/hlo_instruction.cc:4516] Visiting HLO %add.4
2024-11-23 16:27:18.891700: I external/xla/xla/service/shape_inference.cc:1296] inferring shape for <add>(f32[3,8]{1,0}, f32[3,8]{1,0}) with broadcast_dimensions={}
2024-11-23 16:27:18.891714: I external/xla/xla/hlo/ir/hlo_computation.cc:1492] Unreachable roots:
2024-11-23 16:27:18.891721: I external/xla/xla/hlo/ir/hlo_instruction.cc:4582] HloInstruction::Accept(%add.4)
2024-11-23 16:27:18.891730: I external/xla/xla/hlo/ir/hlo_instruction.cc:4516] Visiting HLO %Arg_1.2
2024-11-23 16:27:18.891744: I external/xla/xla/hlo/ir/hlo_instruction.cc:4516] Visiting HLO %Arg_0.1
2024-11-23 16:27:18.891751: I external/xla/xla/hlo/ir/hlo_instruction.cc:4516] Visiting HLO %dot.3
2024-11-23 16:27:18.891759: I external/xla/xla/hlo/ir/hlo_instruction.cc:4507] Not visiting HLO (id = 1) as it was already visited.
2024-11-23 16:27:18.891768: I external/xla/xla/hlo/ir/hlo_instruction.cc:4516] Visiting HLO %add.4
2024-11-23 16:27:18.891780: I external/xla/xla/shape_util.cc:1024] Validating shape size: f32[3,8]
2024-11-23 16:27:18.891787: I external/xla/xla/shape_util.cc:1040] Shape size is valid: 96
2024-11-23 16:27:18.891798: I external/xla/xla/shape_util.cc:1024] Validating shape size: f32[3,8]
2024-11-23 16:27:18.891805: I external/xla/xla/shape_util.cc:1040] Shape size is valid: 96
2024-11-23 16:27:18.891813: I external/xla/xla/shape_util.cc:1024] Validating shape size: f32[3,3]
2024-11-23 16:27:18.891820: I external/xla/xla/shape_util.cc:1040] Shape size is valid: 36
2024-11-23 16:27:18.891843: I external/xla/xla/service/hlo_pass_pipeline.cc:112]     Invariant checker done hlo-verifier
2024-11-23 16:27:18.891858: I external/xla/xla/service/hlo_pass_pipeline.cc:176]   HLO pass sharding-remover
2024-11-23 16:27:18.891870: I external/xla/xla/service/hlo_pass_pipeline.cc:177]   Module hash 16325770853001495388
2024-11-23 16:27:18.891889: I external/xla/xla/service/hlo_pass_pipeline.cc:171] HLO pass: sharding-remover time: 25 us (cumulative: 67 us, max: 42 us, #called: 2)
2024-11-23 16:27:18.891895: I external/xla/xla/service/hlo_pass_pipeline.cc:176]   HLO pass dce
2024-11-23 16:27:18.891911: I external/xla/xla/service/hlo_pass_pipeline.cc:177]   Module hash 16325770853001495388
2024-11-23 16:27:18.891917: I external/xla/xla/service/hlo_dce.cc:268] Before dce:
2024-11-23 16:27:18.891954: I external/xla/xla/service/hlo_dce.cc:269] HloModule SyncTensorsGraph.10, entry_computation_layout={(f32[3,8]{1,0}, f32[3,3]{1,0})->f32[3,8]{1,0}}
2024-11-23 16:27:18.891960: I external/xla/xla/service/hlo_dce.cc:269] 
2024-11-23 16:27:18.891964: I external/xla/xla/service/hlo_dce.cc:269] ENTRY %main.5 (Arg_0.1: f32[3,8], Arg_1.2: f32[3,3]) -> f32[3,8] {
2024-11-23 16:27:18.891968: I external/xla/xla/service/hlo_dce.cc:269]   %Arg_1.2 = f32[3,3]{1,0} parameter(1), metadata={op_name="xla__device_data"}
2024-11-23 16:27:18.891972: I external/xla/xla/service/hlo_dce.cc:269]   %Arg_0.1 = f32[3,8]{1,0} parameter(0), metadata={op_name="xla__device_data"}
2024-11-23 16:27:18.891976: I external/xla/xla/service/hlo_dce.cc:269]   %dot.3 = f32[3,8]{1,0} dot(f32[3,3]{1,0} %Arg_1.2, f32[3,8]{1,0} %Arg_0.1), lhs_contracting_dims={1}, rhs_contracting_dims={0}, metadata={op_name="aten__einsum" source_file="/usr/local/lib/python3.10/dist-packages/torch/functional.py" source_line=402}
2024-11-23 16:27:18.891980: I external/xla/xla/service/hlo_dce.cc:269]   ROOT %add.4 = f32[3,8]{1,0} add(f32[3,8]{1,0} %dot.3, f32[3,8]{1,0} %Arg_0.1), metadata={op_name="aten__add.1/aten__add" source_file="/root/xla/lzy.py" source_line=13}
2024-11-23 16:27:18.891985: I external/xla/xla/service/hlo_dce.cc:269] }
2024-11-23 16:27:18.891988: I external/xla/xla/service/hlo_dce.cc:269] 
2024-11-23 16:27:18.891996: I external/xla/xla/service/hlo_pass_pipeline.cc:171] HLO pass: dce time: 98 us (cumulative: 165 us, max: 98 us, #called: 3)
2024-11-23 16:27:18.892002: I external/xla/xla/service/hlo_pass_pipeline.cc:295] Running HLO pass pipeline on module SyncTensorsGraph.10: SubbytePacker pipeline
2024-11-23 16:27:18.892013: I external/xla/xla/service/hlo_pass_pipeline.cc:176]   HLO pass sub-byte-size-setter
2024-11-23 16:27:18.892017: I external/xla/xla/service/hlo_pass_pipeline.cc:177]   Module hash 16325770853001495388
2024-11-23 16:27:18.892021: I external/xla/xla/hlo/ir/hlo_computation.cc:1492] Unreachable roots:
2024-11-23 16:27:18.892024: I external/xla/xla/hlo/ir/hlo_instruction.cc:4582] HloInstruction::Accept(%add.4)
2024-11-23 16:27:18.892028: I external/xla/xla/hlo/ir/hlo_instruction.cc:4516] Visiting HLO %Arg_1.2
2024-11-23 16:27:18.892031: I external/xla/xla/hlo/ir/hlo_instruction.cc:4516] Visiting HLO %Arg_0.1
2024-11-23 16:27:18.892034: I external/xla/xla/hlo/ir/hlo_instruction.cc:4516] Visiting HLO %dot.3
2024-11-23 16:27:18.892038: I external/xla/xla/hlo/ir/hlo_instruction.cc:4507] Not visiting HLO (id = 1) as it was already visited.
2024-11-23 16:27:18.892040: I external/xla/xla/hlo/ir/hlo_instruction.cc:4516] Visiting HLO %add.4
2024-11-23 16:27:18.892046: I external/xla/xla/service/hlo_pass_pipeline.cc:171] HLO pass: sub-byte-size-setter time: 32 us (cumulative: 197 us, max: 98 us, #called: 4)
2024-11-23 16:27:18.892073: I external/xla/xla/service/layout_assignment.cc:1404] Entry computation layout given to layout assignment: (f32[3,8]{1,0}, f32[3,3]{1,0})->f32[3,8]{1,0}
2024-11-23 16:27:18.892082: I external/xla/xla/service/hlo_pass_pipeline.cc:295] Running HLO pass pipeline on module SyncTensorsGraph.10: HLO passes through layout assignment
2024-11-23 16:27:18.892113: I external/xla/xla/service/hlo_pass_pipeline.cc:109]     Invariant checker hlo-verifier
2024-11-23 16:27:18.892118: I external/xla/xla/hlo/ir/hlo_computation.cc:1492] Unreachable roots:
2024-11-23 16:27:18.892121: I external/xla/xla/hlo/ir/hlo_instruction.cc:4582] HloInstruction::Accept(%add.4)
2024-11-23 16:27:18.892126: I external/xla/xla/hlo/ir/hlo_instruction.cc:4516] Visiting HLO %Arg_1.2
2024-11-23 16:27:18.892129: I external/xla/xla/hlo/ir/hlo_instruction.cc:4516] Visiting HLO %Arg_0.1
2024-11-23 16:27:18.892132: I external/xla/xla/hlo/ir/hlo_instruction.cc:4516] Visiting HLO %dot.3
2024-11-23 16:27:18.892140: I external/xla/xla/service/shape_inference.cc:972] inferred dot shape: f32[3,8]
2024-11-23 16:27:18.892173: I external/xla/xla/hlo/ir/hlo_instruction.cc:4507] Not visiting HLO (id = 1) as it was already visited.
2024-11-23 16:27:18.892176: I external/xla/xla/hlo/ir/hlo_instruction.cc:4516] Visiting HLO %add.4
2024-11-23 16:27:18.892182: I external/xla/xla/service/shape_inference.cc:1296] inferring shape for <add>(f32[3,8]{1,0}, f32[3,8]{1,0}) with broadcast_dimensions={}
2024-11-23 16:27:18.892187: I external/xla/xla/hlo/ir/hlo_computation.cc:1492] Unreachable roots:
2024-11-23 16:27:18.892190: I external/xla/xla/hlo/ir/hlo_instruction.cc:4582] HloInstruction::Accept(%add.4)
2024-11-23 16:27:18.892193: I external/xla/xla/hlo/ir/hlo_instruction.cc:4516] Visiting HLO %Arg_1.2
2024-11-23 16:27:18.892197: I external/xla/xla/hlo/ir/hlo_instruction.cc:4516] Visiting HLO %Arg_0.1
2024-11-23 16:27:18.892199: I external/xla/xla/hlo/ir/hlo_instruction.cc:4516] Visiting HLO %dot.3
2024-11-23 16:27:18.892202: I external/xla/xla/hlo/ir/hlo_instruction.cc:4507] Not visiting HLO (id = 1) as it was already visited.
2024-11-23 16:27:18.892206: I external/xla/xla/hlo/ir/hlo_instruction.cc:4516] Visiting HLO %add.4
2024-11-23 16:27:18.892210: I external/xla/xla/shape_util.cc:1024] Validating shape size: f32[3,8]
2024-11-23 16:27:18.892213: I external/xla/xla/shape_util.cc:1040] Shape size is valid: 96
2024-11-23 16:27:18.892216: I external/xla/xla/shape_util.cc:1024] Validating shape size: f32[3,8]
2024-11-23 16:27:18.892219: I external/xla/xla/shape_util.cc:1040] Shape size is valid: 96
2024-11-23 16:27:18.892222: I external/xla/xla/shape_util.cc:1024] Validating shape size: f32[3,3]
2024-11-23 16:27:18.892225: I external/xla/xla/shape_util.cc:1040] Shape size is valid: 36
2024-11-23 16:27:18.892230: I external/xla/xla/service/hlo_pass_pipeline.cc:112]     Invariant checker done hlo-verifier
2024-11-23 16:27:18.892235: I external/xla/xla/service/hlo_pass_pipeline.cc:176]   HLO pass result_caster
2024-11-23 16:27:18.892240: I external/xla/xla/service/hlo_pass_pipeline.cc:177]   Module hash 16325770853001495388
2024-11-23 16:27:18.892245: I external/xla/xla/service/shape_inference.cc:972] inferred dot shape: f32[3,8]
2024-11-23 16:27:18.892251: I external/xla/xla/service/hlo_pass_pipeline.cc:171] HLO pass: result_caster time: 14 us (cumulative: 211 us, max: 98 us, #called: 5)
2024-11-23 16:27:18.892254: I external/xla/xla/service/hlo_pass_pipeline.cc:176]   HLO pass operand_upcaster
2024-11-23 16:27:18.892258: I external/xla/xla/service/hlo_pass_pipeline.cc:177]   Module hash 16325770853001495388
2024-11-23 16:27:18.892262: I external/xla/xla/service/shape_inference.cc:972] inferred dot shape: f32[3,8]
2024-11-23 16:27:18.892267: I external/xla/xla/service/hlo_pass_pipeline.cc:171] HLO pass: operand_upcaster time: 12 us (cumulative: 223 us, max: 98 us, #called: 6)
2024-11-23 16:27:18.892270: I external/xla/xla/service/hlo_pass_pipeline.cc:176]   HLO pass rng-expander
2024-11-23 16:27:18.892274: I external/xla/xla/service/hlo_pass_pipeline.cc:177]   Module hash 16325770853001495388
2024-11-23 16:27:18.892279: I external/xla/xla/service/hlo_pass_pipeline.cc:171] HLO pass: rng-expander time: 7 us (cumulative: 230 us, max: 98 us, #called: 7)
2024-11-23 16:27:18.892282: I external/xla/xla/service/hlo_pass_pipeline.cc:176]   HLO pass rng-bit-generator-expander
2024-11-23 16:27:18.892286: I external/xla/xla/service/hlo_pass_pipeline.cc:177]   Module hash 16325770853001495388
2024-11-23 16:27:18.892291: I external/xla/xla/service/hlo_pass_pipeline.cc:171] HLO pass: rng-bit-generator-expander time: 7 us (cumulative: 237 us, max: 98 us, #called: 8)
2024-11-23 16:27:18.892294: I external/xla/xla/service/hlo_pass_pipeline.cc:176]   HLO pass zero_sized_hlo_elimination
2024-11-23 16:27:18.892297: I external/xla/xla/service/hlo_pass_pipeline.cc:177]   Module hash 16325770853001495388
2024-11-23 16:27:18.892304: I external/xla/xla/service/hlo_pass_pipeline.cc:171] HLO pass: zero_sized_hlo_elimination time: 8 us (cumulative: 245 us, max: 98 us, #called: 9)
2024-11-23 16:27:18.892309: I external/xla/xla/service/hlo_pass_pipeline.cc:176]   HLO pass dynamic-index-splitter
2024-11-23 16:27:18.892313: I external/xla/xla/service/hlo_pass_pipeline.cc:177]   Module hash 16325770853001495388
2024-11-23 16:27:18.892318: I external/xla/xla/service/hlo_pass_pipeline.cc:171] HLO pass: dynamic-index-splitter time: 8 us (cumulative: 253 us, max: 98 us, #called: 10)
2024-11-23 16:27:18.892322: I external/xla/xla/service/hlo_pass_pipeline.cc:176]   HLO pass conditional-to-select
2024-11-23 16:27:18.892325: I external/xla/xla/service/hlo_pass_pipeline.cc:177]   Module hash 16325770853001495388
2024-11-23 16:27:18.892332: I external/xla/xla/service/call_graph.cc:323] Building call graph for:
2024-11-23 16:27:18.892347: I external/xla/xla/service/call_graph.cc:324] HloModule SyncTensorsGraph.10, entry_computation_layout={(f32[3,8]{1,0}, f32[3,3]{1,0})->f32[3,8]{1,0}}
2024-11-23 16:27:18.892350: I external/xla/xla/service/call_graph.cc:324] 
2024-11-23 16:27:18.892353: I external/xla/xla/service/call_graph.cc:324] ENTRY %main.5 (Arg_0.1: f32[3,8], Arg_1.2: f32[3,3]) -> f32[3,8] {
2024-11-23 16:27:18.892356: I external/xla/xla/service/call_graph.cc:324]   %Arg_1.2 = f32[3,3]{1,0} parameter(1), metadata={op_name="xla__device_data"}
2024-11-23 16:27:18.892359: I external/xla/xla/service/call_graph.cc:324]   %Arg_0.1 = f32[3,8]{1,0} parameter(0), metadata={op_name="xla__device_data"}
2024-11-23 16:27:18.892362: I external/xla/xla/service/call_graph.cc:324]   %dot.3 = f32[3,8]{1,0} dot(f32[3,3]{1,0} %Arg_1.2, f32[3,8]{1,0} %Arg_0.1), lhs_contracting_dims={1}, rhs_contracting_dims={0}, metadata={op_name="aten__einsum" source_file="/usr/local/lib/python3.10/dist-packages/torch/functional.py" source_line=402}
2024-11-23 16:27:18.892365: I external/xla/xla/service/call_graph.cc:324]   ROOT %add.4 = f32[3,8]{1,0} add(f32[3,8]{1,0} %dot.3, f32[3,8]{1,0} %Arg_0.1), metadata={op_name="aten__add.1/aten__add" source_file="/root/xla/lzy.py" source_line=13}
2024-11-23 16:27:18.892367: I external/xla/xla/service/call_graph.cc:324] }
2024-11-23 16:27:18.892370: I external/xla/xla/service/call_graph.cc:324] 
2024-11-23 16:27:18.892379: I external/xla/xla/service/call_graph.cc:361] Call graph for module SyncTensorsGraph.10:
2024-11-23 16:27:18.892382: I external/xla/xla/service/call_graph.cc:361] Computation main.5:
2024-11-23 16:27:18.892385: I external/xla/xla/service/call_graph.cc:361]   calls:
2024-11-23 16:27:18.892388: I external/xla/xla/service/call_graph.cc:361]   called by:
2024-11-23 16:27:18.892391: I external/xla/xla/service/call_graph.cc:361]   callsites:
2024-11-23 16:27:18.892398: I external/xla/xla/service/conditional_to_select.cc:74] Running conditional-to-select pass
2024-11-23 16:27:18.892407: I external/xla/xla/service/hlo_pass_pipeline.cc:171] HLO pass: conditional-to-select time: 83 us (cumulative: 336 us, max: 98 us, #called: 11)
2024-11-23 16:27:18.892410: I external/xla/xla/service/hlo_pass_pipeline.cc:176]   HLO pass map-inline
2024-11-23 16:27:18.892414: I external/xla/xla/service/hlo_pass_pipeline.cc:177]   Module hash 16325770853001495388
2024-11-23 16:27:18.892419: I external/xla/xla/hlo/ir/hlo_instruction.cc:4582] HloInstruction::Accept(%add.4)
2024-11-23 16:27:18.892422: I external/xla/xla/hlo/ir/hlo_instruction.cc:4516] Visiting HLO %Arg_1.2
2024-11-23 16:27:18.892425: I external/xla/xla/hlo/ir/hlo_instruction.cc:4516] Visiting HLO %Arg_0.1
2024-11-23 16:27:18.892427: I external/xla/xla/hlo/ir/hlo_instruction.cc:4516] Visiting HLO %dot.3
2024-11-23 16:27:18.892430: I external/xla/xla/hlo/ir/hlo_instruction.cc:4507] Not visiting HLO (id = 1) as it was already visited.
2024-11-23 16:27:18.892433: I external/xla/xla/hlo/ir/hlo_instruction.cc:4516] Visiting HLO %add.4
2024-11-23 16:27:18.892437: I external/xla/xla/service/hlo_pass_pipeline.cc:171] HLO pass: map-inline time: 26 us (cumulative: 362 us, max: 98 us, #called: 12)
2024-11-23 16:27:18.892441: I external/xla/xla/service/hlo_pass_pipeline.cc:176]   HLO pass topk-decomposer
2024-11-23 16:27:18.892444: I external/xla/xla/service/hlo_pass_pipeline.cc:177]   Module hash 16325770853001495388
2024-11-23 16:27:18.892453: I external/xla/xla/hlo/ir/hlo_computation.cc:1492] Unreachable roots:
2024-11-23 16:27:18.892456: I external/xla/xla/hlo/ir/hlo_instruction.cc:4582] HloInstruction::Accept(%add.4)
2024-11-23 16:27:18.892459: I external/xla/xla/hlo/ir/hlo_instruction.cc:4516] Visiting HLO %Arg_1.2
2024-11-23 16:27:18.892462: I external/xla/xla/hlo/ir/hlo_instruction.cc:4516] Visiting HLO %Arg_0.1
2024-11-23 16:27:18.892465: I external/xla/xla/hlo/ir/hlo_instruction.cc:4516] Visiting HLO %dot.3
2024-11-23 16:27:18.892468: I external/xla/xla/hlo/ir/hlo_instruction.cc:4507] Not visiting HLO (id = 1) as it was already visited.
2024-11-23 16:27:18.892470: I external/xla/xla/hlo/ir/hlo_instruction.cc:4516] Visiting HLO %add.4
2024-11-23 16:27:18.892475: I external/xla/xla/service/hlo_pass_pipeline.cc:171] HLO pass: topk-decomposer time: 33 us (cumulative: 395 us, max: 98 us, #called: 13)
2024-11-23 16:27:18.892478: I external/xla/xla/service/hlo_pass_pipeline.cc:176]   HLO pass comparison-expander
2024-11-23 16:27:18.892482: I external/xla/xla/service/hlo_pass_pipeline.cc:177]   Module hash 16325770853001495388
2024-11-23 16:27:18.892487: I external/xla/xla/service/hlo_pass_pipeline.cc:171] HLO pass: comparison-expander time: 7 us (cumulative: 402 us, max: 98 us, #called: 14)
2024-11-23 16:27:18.892490: I external/xla/xla/service/hlo_pass_pipeline.cc:176]   HLO pass cholesky_expander
2024-11-23 16:27:18.892493: I external/xla/xla/service/hlo_pass_pipeline.cc:177]   Module hash 16325770853001495388
2024-11-23 16:27:18.892498: I external/xla/xla/service/hlo_pass_pipeline.cc:171] HLO pass: cholesky_expander time: 7 us (cumulative: 409 us, max: 98 us, #called: 15)
2024-11-23 16:27:18.892501: I external/xla/xla/service/hlo_pass_pipeline.cc:176]   HLO pass qr_expander
2024-11-23 16:27:18.892505: I external/xla/xla/service/hlo_pass_pipeline.cc:177]   Module hash 16325770853001495388
2024-11-23 16:27:18.892509: I external/xla/xla/service/hlo_pass_pipeline.cc:171] HLO pass: qr_expander time: 7 us (cumulative: 416 us, max: 98 us, #called: 16)
2024-11-23 16:27:18.892513: I external/xla/xla/service/hlo_pass_pipeline.cc:176]   HLO pass eigh_expander
2024-11-23 16:27:18.892516: I external/xla/xla/service/hlo_pass_pipeline.cc:177]   Module hash 16325770853001495388
2024-11-23 16:27:18.892521: I external/xla/xla/service/hlo_pass_pipeline.cc:171] HLO pass: eigh_expander time: 8 us (cumulative: 424 us, max: 98 us, #called: 17)
2024-11-23 16:27:18.892524: I external/xla/xla/service/hlo_pass_pipeline.cc:176]   HLO pass triangular_solve_expander
2024-11-23 16:27:18.892528: I external/xla/xla/service/hlo_pass_pipeline.cc:177]   Module hash 16325770853001495388
2024-11-23 16:27:18.892533: I external/xla/xla/service/hlo_pass_pipeline.cc:171] HLO pass: triangular_solve_expander time: 7 us (cumulative: 431 us, max: 98 us, #called: 18)
2024-11-23 16:27:18.892536: I external/xla/xla/service/hlo_pass_pipeline.cc:176]   HLO pass all_to_all_decomposer
2024-11-23 16:27:18.892540: I external/xla/xla/service/hlo_pass_pipeline.cc:177]   Module hash 16325770853001495388
2024-11-23 16:27:18.892544: I external/xla/xla/service/hlo_pass_pipeline.cc:171] HLO pass: all_to_all_decomposer time: 7 us (cumulative: 438 us, max: 98 us, #called: 19)
2024-11-23 16:27:18.892548: I external/xla/xla/service/hlo_pass_pipeline.cc:176]   HLO pass stochastic_convert_decomposer
2024-11-23 16:27:18.892551: I external/xla/xla/service/hlo_pass_pipeline.cc:177]   Module hash 16325770853001495388
2024-11-23 16:27:18.892556: I external/xla/xla/service/hlo_pass_pipeline.cc:171] HLO pass: stochastic_convert_decomposer time: 8 us (cumulative: 446 us, max: 98 us, #called: 20)
2024-11-23 16:27:18.892560: I external/xla/xla/service/hlo_pass_pipeline.cc:176]   HLO pass call-inliner
2024-11-23 16:27:18.892563: I external/xla/xla/service/hlo_pass_pipeline.cc:177]   Module hash 16325770853001495388
2024-11-23 16:27:18.892567: I external/xla/xla/service/call_graph.cc:323] Building call graph for:
2024-11-23 16:27:18.892579: I external/xla/xla/service/call_graph.cc:324] HloModule SyncTensorsGraph.10, entry_computation_layout={(f32[3,8]{1,0}, f32[3,3]{1,0})->f32[3,8]{1,0}}
2024-11-23 16:27:18.892584: I external/xla/xla/service/call_graph.cc:324] 
2024-11-23 16:27:18.892587: I external/xla/xla/service/call_graph.cc:324] ENTRY %main.5 (Arg_0.1: f32[3,8], Arg_1.2: f32[3,3]) -> f32[3,8] {
2024-11-23 16:27:18.892590: I external/xla/xla/service/call_graph.cc:324]   %Arg_1.2 = f32[3,3]{1,0} parameter(1), metadata={op_name="xla__device_data"}
2024-11-23 16:27:18.892593: I external/xla/xla/service/call_graph.cc:324]   %Arg_0.1 = f32[3,8]{1,0} parameter(0), metadata={op_name="xla__device_data"}
2024-11-23 16:27:18.892596: I external/xla/xla/service/call_graph.cc:324]   %dot.3 = f32[3,8]{1,0} dot(f32[3,3]{1,0} %Arg_1.2, f32[3,8]{1,0} %Arg_0.1), lhs_contracting_dims={1}, rhs_contracting_dims={0}, metadata={op_name="aten__einsum" source_file="/usr/local/lib/python3.10/dist-packages/torch/functional.py" source_line=402}
2024-11-23 16:27:18.892598: I external/xla/xla/service/call_graph.cc:324]   ROOT %add.4 = f32[3,8]{1,0} add(f32[3,8]{1,0} %dot.3, f32[3,8]{1,0} %Arg_0.1), metadata={op_name="aten__add.1/aten__add" source_file="/root/xla/lzy.py" source_line=13}
2024-11-23 16:27:18.892601: I external/xla/xla/service/call_graph.cc:324] }
2024-11-23 16:27:18.892604: I external/xla/xla/service/call_graph.cc:324] 
2024-11-23 16:27:18.892609: I external/xla/xla/service/call_graph.cc:361] Call graph for module SyncTensorsGraph.10:
2024-11-23 16:27:18.892612: I external/xla/xla/service/call_graph.cc:361] Computation main.5:
2024-11-23 16:27:18.892615: I external/xla/xla/service/call_graph.cc:361]   calls:
2024-11-23 16:27:18.892618: I external/xla/xla/service/call_graph.cc:361]   called by:
2024-11-23 16:27:18.892621: I external/xla/xla/service/call_graph.cc:361]   callsites:
2024-11-23 16:27:18.892624: I external/xla/xla/service/call_inliner.cc:179] Visiting node: main.5
2024-11-23 16:27:18.892629: I external/xla/xla/service/hlo_pass_pipeline.cc:171] HLO pass: call-inliner time: 69 us (cumulative: 515 us, max: 98 us, #called: 21)
2024-11-23 16:27:18.892632: I external/xla/xla/service/hlo_pass_pipeline.cc:176]   HLO pass batch-dot-simplification
2024-11-23 16:27:18.892636: I external/xla/xla/service/hlo_pass_pipeline.cc:177]   Module hash 16325770853001495388
2024-11-23 16:27:18.892642: I external/xla/xla/service/hlo_pass_pipeline.cc:171] HLO pass: batch-dot-simplification time: 8 us (cumulative: 523 us, max: 98 us, #called: 22)
2024-11-23 16:27:18.892645: I external/xla/xla/service/hlo_pass_pipeline.cc:176]   HLO pass dot_decomposer
2024-11-23 16:27:18.892648: I external/xla/xla/service/hlo_pass_pipeline.cc:177]   Module hash 16325770853001495388
2024-11-23 16:27:18.892653: I external/xla/xla/service/hlo_pass_pipeline.cc:171] HLO pass: dot_decomposer time: 8 us (cumulative: 531 us, max: 98 us, #called: 23)
2024-11-23 16:27:18.892656: I external/xla/xla/service/hlo_pass_pipeline.cc:176]   HLO pass all-reduce-promotion
2024-11-23 16:27:18.892660: I external/xla/xla/service/hlo_pass_pipeline.cc:177]   Module hash 16325770853001495388
2024-11-23 16:27:18.892665: I external/xla/xla/service/hlo_pass_pipeline.cc:171] HLO pass: all-reduce-promotion time: 8 us (cumulative: 539 us, max: 98 us, #called: 24)
2024-11-23 16:27:18.892668: I external/xla/xla/service/hlo_pass_pipeline.cc:176]   HLO pass float-normalization-bf16
2024-11-23 16:27:18.892672: I external/xla/xla/service/hlo_pass_pipeline.cc:177]   Module hash 16325770853001495388
2024-11-23 16:27:18.892685: I external/xla/xla/service/float_normalization.cc:660] FloatNormalization::Run() for bf16, before:
2024-11-23 16:27:18.892688: I external/xla/xla/service/float_normalization.cc:660] HloModule SyncTensorsGraph.10, entry_computation_layout={(f32[3,8]{1,0}, f32[3,3]{1,0})->f32[3,8]{1,0}}
2024-11-23 16:27:18.892691: I external/xla/xla/service/float_normalization.cc:660] 
2024-11-23 16:27:18.892693: I external/xla/xla/service/float_normalization.cc:660] ENTRY %main.5 (Arg_0.1: f32[3,8], Arg_1.2: f32[3,3]) -> f32[3,8] {
2024-11-23 16:27:18.892696: I external/xla/xla/service/float_normalization.cc:660]   %Arg_1.2 = f32[3,3]{1,0} parameter(1), metadata={op_name="xla__device_data"}
2024-11-23 16:27:18.892701: I external/xla/xla/service/float_normalization.cc:660]   %Arg_0.1 = f32[3,8]{1,0} parameter(0), metadata={op_name="xla__device_data"}
2024-11-23 16:27:18.892704: I external/xla/xla/service/float_normalization.cc:660]   %dot.3 = f32[3,8]{1,0} dot(f32[3,3]{1,0} %Arg_1.2, f32[3,8]{1,0} %Arg_0.1), lhs_contracting_dims={1}, rhs_contracting_dims={0}, metadata={op_name="aten__einsum" source_file="/usr/local/lib/python3.10/dist-packages/torch/functional.py" source_line=402}
2024-11-23 16:27:18.892706: I external/xla/xla/service/float_normalization.cc:660]   ROOT %add.4 = f32[3,8]{1,0} add(f32[3,8]{1,0} %dot.3, f32[3,8]{1,0} %Arg_0.1), metadata={op_name="aten__add.1/aten__add" source_file="/root/xla/lzy.py" source_line=13}
2024-11-23 16:27:18.892709: I external/xla/xla/service/float_normalization.cc:660] }
2024-11-23 16:27:18.892712: I external/xla/xla/service/float_normalization.cc:660] 
2024-11-23 16:27:18.892715: I external/xla/xla/service/call_graph.cc:323] Building call graph for:
2024-11-23 16:27:18.892725: I external/xla/xla/service/call_graph.cc:324] HloModule SyncTensorsGraph.10, entry_computation_layout={(f32[3,8]{1,0}, f32[3,3]{1,0})->f32[3,8]{1,0}}
2024-11-23 16:27:18.892728: I external/xla/xla/service/call_graph.cc:324] 
2024-11-23 16:27:18.892731: I external/xla/xla/service/call_graph.cc:324] ENTRY %main.5 (Arg_0.1: f32[3,8], Arg_1.2: f32[3,3]) -> f32[3,8] {
2024-11-23 16:27:18.892734: I external/xla/xla/service/call_graph.cc:324]   %Arg_1.2 = f32[3,3]{1,0} parameter(1), metadata={op_name="xla__device_data"}
2024-11-23 16:27:18.892737: I external/xla/xla/service/call_graph.cc:324]   %Arg_0.1 = f32[3,8]{1,0} parameter(0), metadata={op_name="xla__device_data"}
2024-11-23 16:27:18.892739: I external/xla/xla/service/call_graph.cc:324]   %dot.3 = f32[3,8]{1,0} dot(f32[3,3]{1,0} %Arg_1.2, f32[3,8]{1,0} %Arg_0.1), lhs_contracting_dims={1}, rhs_contracting_dims={0}, metadata={op_name="aten__einsum" source_file="/usr/local/lib/python3.10/dist-packages/torch/functional.py" source_line=402}
2024-11-23 16:27:18.892742: I external/xla/xla/service/call_graph.cc:324]   ROOT %add.4 = f32[3,8]{1,0} add(f32[3,8]{1,0} %dot.3, f32[3,8]{1,0} %Arg_0.1), metadata={op_name="aten__add.1/aten__add" source_file="/root/xla/lzy.py" source_line=13}
2024-11-23 16:27:18.892745: I external/xla/xla/service/call_graph.cc:324] }
2024-11-23 16:27:18.892748: I external/xla/xla/service/call_graph.cc:324] 
2024-11-23 16:27:18.892752: I external/xla/xla/service/call_graph.cc:361] Call graph for module SyncTensorsGraph.10:
2024-11-23 16:27:18.892755: I external/xla/xla/service/call_graph.cc:361] Computation main.5:
2024-11-23 16:27:18.892758: I external/xla/xla/service/call_graph.cc:361]   calls:
2024-11-23 16:27:18.892761: I external/xla/xla/service/call_graph.cc:361]   called by:
2024-11-23 16:27:18.892763: I external/xla/xla/service/call_graph.cc:361]   callsites:
2024-11-23 16:27:18.892767: I external/xla/xla/hlo/ir/hlo_computation.cc:1492] Unreachable roots:
2024-11-23 16:27:18.892769: I external/xla/xla/hlo/ir/hlo_instruction.cc:4582] HloInstruction::Accept(%add.4)
2024-11-23 16:27:18.892772: I external/xla/xla/hlo/ir/hlo_instruction.cc:4516] Visiting HLO %Arg_1.2
2024-11-23 16:27:18.892775: I external/xla/xla/hlo/ir/hlo_instruction.cc:4516] Visiting HLO %Arg_0.1
2024-11-23 16:27:18.892778: I external/xla/xla/hlo/ir/hlo_instruction.cc:4516] Visiting HLO %dot.3
2024-11-23 16:27:18.892782: I external/xla/xla/hlo/ir/hlo_instruction.cc:4507] Not visiting HLO (id = 1) as it was already visited.
2024-11-23 16:27:18.892785: I external/xla/xla/hlo/ir/hlo_instruction.cc:4516] Visiting HLO %add.4
2024-11-23 16:27:18.892796: I external/xla/xla/service/float_normalization.cc:674] FloatNormalization::Run() for bf16, after:
2024-11-23 16:27:18.892799: I external/xla/xla/service/float_normalization.cc:674] HloModule SyncTensorsGraph.10, entry_computation_layout={(f32[3,8]{1,0}, f32[3,3]{1,0})->f32[3,8]{1,0}}
2024-11-23 16:27:18.892804: I external/xla/xla/service/float_normalization.cc:674] 
2024-11-23 16:27:18.892807: I external/xla/xla/service/float_normalization.cc:674] ENTRY %main.5 (Arg_0.1: f32[3,8], Arg_1.2: f32[3,3]) -> f32[3,8] {
2024-11-23 16:27:18.892810: I external/xla/xla/service/float_normalization.cc:674]   %Arg_1.2 = f32[3,3]{1,0} parameter(1), metadata={op_name="xla__device_data"}
2024-11-23 16:27:18.892813: I external/xla/xla/service/float_normalization.cc:674]   %Arg_0.1 = f32[3,8]{1,0} parameter(0), metadata={op_name="xla__device_data"}
2024-11-23 16:27:18.892815: I external/xla/xla/service/float_normalization.cc:674]   %dot.3 = f32[3,8]{1,0} dot(f32[3,3]{1,0} %Arg_1.2, f32[3,8]{1,0} %Arg_0.1), lhs_contracting_dims={1}, rhs_contracting_dims={0}, metadata={op_name="aten__einsum" source_file="/usr/local/lib/python3.10/dist-packages/torch/functional.py" source_line=402}
2024-11-23 16:27:18.892818: I external/xla/xla/service/float_normalization.cc:674]   ROOT %add.4 = f32[3,8]{1,0} add(f32[3,8]{1,0} %dot.3, f32[3,8]{1,0} %Arg_0.1), metadata={op_name="aten__add.1/aten__add" source_file="/root/xla/lzy.py" source_line=13}
2024-11-23 16:27:18.892821: I external/xla/xla/service/float_normalization.cc:674] }
2024-11-23 16:27:18.892824: I external/xla/xla/service/float_normalization.cc:674] 
2024-11-23 16:27:18.892828: I external/xla/xla/service/hlo_pass_pipeline.cc:171] HLO pass: float-normalization-bf16 time: 158 us (cumulative: 697 us, max: 158 us, #called: 25)
2024-11-23 16:27:18.892831: I external/xla/xla/service/hlo_pass_pipeline.cc:176]   HLO pass float-normalization-f8e5m2
2024-11-23 16:27:18.892835: I external/xla/xla/service/hlo_pass_pipeline.cc:177]   Module hash 16325770853001495388
2024-11-23 16:27:18.892846: I external/xla/xla/service/float_normalization.cc:660] FloatNormalization::Run() for f8e5m2, before:
2024-11-23 16:27:18.892849: I external/xla/xla/service/float_normalization.cc:660] HloModule SyncTensorsGraph.10, entry_computation_layout={(f32[3,8]{1,0}, f32[3,3]{1,0})->f32[3,8]{1,0}}
2024-11-23 16:27:18.892852: I external/xla/xla/service/float_normalization.cc:660] 
2024-11-23 16:27:18.892855: I external/xla/xla/service/float_normalization.cc:660] ENTRY %main.5 (Arg_0.1: f32[3,8], Arg_1.2: f32[3,3]) -> f32[3,8] {
2024-11-23 16:27:18.892858: I external/xla/xla/service/float_normalization.cc:660]   %Arg_1.2 = f32[3,3]{1,0} parameter(1), metadata={op_name="xla__device_data"}
2024-11-23 16:27:18.892860: I external/xla/xla/service/float_normalization.cc:660]   %Arg_0.1 = f32[3,8]{1,0} parameter(0), metadata={op_name="xla__device_data"}
2024-11-23 16:27:18.892863: I external/xla/xla/service/float_normalization.cc:660]   %dot.3 = f32[3,8]{1,0} dot(f32[3,3]{1,0} %Arg_1.2, f32[3,8]{1,0} %Arg_0.1), lhs_contracting_dims={1}, rhs_contracting_dims={0}, metadata={op_name="aten__einsum" source_file="/usr/local/lib/python3.10/dist-packages/torch/functional.py" source_line=402}
2024-11-23 16:27:18.892866: I external/xla/xla/service/float_normalization.cc:660]   ROOT %add.4 = f32[3,8]{1,0} add(f32[3,8]{1,0} %dot.3, f32[3,8]{1,0} %Arg_0.1), metadata={op_name="aten__add.1/aten__add" source_file="/root/xla/lzy.py" source_line=13}
2024-11-23 16:27:18.892869: I external/xla/xla/service/float_normalization.cc:660] }
2024-11-23 16:27:18.892871: I external/xla/xla/service/float_normalization.cc:660] 
2024-11-23 16:27:18.892874: I external/xla/xla/service/call_graph.cc:323] Building call graph for:
2024-11-23 16:27:18.892884: I external/xla/xla/service/call_graph.cc:324] HloModule SyncTensorsGraph.10, entry_computation_layout={(f32[3,8]{1,0}, f32[3,3]{1,0})->f32[3,8]{1,0}}
2024-11-23 16:27:18.892887: I external/xla/xla/service/call_graph.cc:324] 
2024-11-23 16:27:18.892890: I external/xla/xla/service/call_graph.cc:324] ENTRY %main.5 (Arg_0.1: f32[3,8], Arg_1.2: f32[3,3]) -> f32[3,8] {
2024-11-23 16:27:18.892893: I external/xla/xla/service/call_graph.cc:324]   %Arg_1.2 = f32[3,3]{1,0} parameter(1), metadata={op_name="xla__device_data"}
2024-11-23 16:27:18.892896: I external/xla/xla/service/call_graph.cc:324]   %Arg_0.1 = f32[3,8]{1,0} parameter(0), metadata={op_name="xla__device_data"}
2024-11-23 16:27:18.892900: I external/xla/xla/service/call_graph.cc:324]   %dot.3 = f32[3,8]{1,0} dot(f32[3,3]{1,0} %Arg_1.2, f32[3,8]{1,0} %Arg_0.1), lhs_contracting_dims={1}, rhs_contracting_dims={0}, metadata={op_name="aten__einsum" source_file="/usr/local/lib/python3.10/dist-packages/torch/functional.py" source_line=402}
2024-11-23 16:27:18.892903: I external/xla/xla/service/call_graph.cc:324]   ROOT %add.4 = f32[3,8]{1,0} add(f32[3,8]{1,0} %dot.3, f32[3,8]{1,0} %Arg_0.1), metadata={op_name="aten__add.1/aten__add" source_file="/root/xla/lzy.py" source_line=13}
2024-11-23 16:27:18.892906: I external/xla/xla/service/call_graph.cc:324] }
2024-11-23 16:27:18.892908: I external/xla/xla/service/call_graph.cc:324] 
2024-11-23 16:27:18.892913: I external/xla/xla/service/call_graph.cc:361] Call graph for module SyncTensorsGraph.10:
2024-11-23 16:27:18.892916: I external/xla/xla/service/call_graph.cc:361] Computation main.5:
2024-11-23 16:27:18.892919: I external/xla/xla/service/call_graph.cc:361]   calls:
2024-11-23 16:27:18.892922: I external/xla/xla/service/call_graph.cc:361]   called by:
2024-11-23 16:27:18.892924: I external/xla/xla/service/call_graph.cc:361]   callsites:
2024-11-23 16:27:18.892927: I external/xla/xla/hlo/ir/hlo_computation.cc:1492] Unreachable roots:
2024-11-23 16:27:18.892930: I external/xla/xla/hlo/ir/hlo_instruction.cc:4582] HloInstruction::Accept(%add.4)
2024-11-23 16:27:18.892933: I external/xla/xla/hlo/ir/hlo_instruction.cc:4516] Visiting HLO %Arg_1.2
2024-11-23 16:27:18.892936: I external/xla/xla/hlo/ir/hlo_instruction.cc:4516] Visiting HLO %Arg_0.1
2024-11-23 16:27:18.892938: I external/xla/xla/hlo/ir/hlo_instruction.cc:4516] Visiting HLO %dot.3
2024-11-23 16:27:18.892942: I external/xla/xla/hlo/ir/hlo_instruction.cc:4507] Not visiting HLO (id = 1) as it was already visited.
2024-11-23 16:27:18.892944: I external/xla/xla/hlo/ir/hlo_instruction.cc:4516] Visiting HLO %add.4
2024-11-23 16:27:18.892955: I external/xla/xla/service/float_normalization.cc:674] FloatNormalization::Run() for f8e5m2, after:
2024-11-23 16:27:18.892958: I external/xla/xla/service/float_normalization.cc:674] HloModule SyncTensorsGraph.10, entry_computation_layout={(f32[3,8]{1,0}, f32[3,3]{1,0})->f32[3,8]{1,0}}
2024-11-23 16:27:18.892961: I external/xla/xla/service/float_normalization.cc:674] 
2024-11-23 16:27:18.892964: I external/xla/xla/service/float_normalization.cc:674] ENTRY %main.5 (Arg_0.1: f32[3,8], Arg_1.2: f32[3,3]) -> f32[3,8] {
2024-11-23 16:27:18.892967: I external/xla/xla/service/float_normalization.cc:674]   %Arg_1.2 = f32[3,3]{1,0} parameter(1), metadata={op_name="xla__device_data"}
2024-11-23 16:27:18.892969: I external/xla/xla/service/float_normalization.cc:674]   %Arg_0.1 = f32[3,8]{1,0} parameter(0), metadata={op_name="xla__device_data"}
2024-11-23 16:27:18.892972: I external/xla/xla/service/float_normalization.cc:674]   %dot.3 = f32[3,8]{1,0} dot(f32[3,3]{1,0} %Arg_1.2, f32[3,8]{1,0} %Arg_0.1), lhs_contracting_dims={1}, rhs_contracting_dims={0}, metadata={op_name="aten__einsum" source_file="/usr/local/lib/python3.10/dist-packages/torch/functional.py" source_line=402}
2024-11-23 16:27:18.892975: I external/xla/xla/service/float_normalization.cc:674]   ROOT %add.4 = f32[3,8]{1,0} add(f32[3,8]{1,0} %dot.3, f32[3,8]{1,0} %Arg_0.1), metadata={op_name="aten__add.1/aten__add" source_file="/root/xla/lzy.py" source_line=13}
2024-11-23 16:27:18.892978: I external/xla/xla/service/float_normalization.cc:674] }
2024-11-23 16:27:18.892980: I external/xla/xla/service/float_normalization.cc:674] 
2024-11-23 16:27:18.892985: I external/xla/xla/service/hlo_pass_pipeline.cc:171] HLO pass: float-normalization-f8e5m2 time: 152 us (cumulative: 849 us, max: 158 us, #called: 26)
2024-11-23 16:27:18.892988: I external/xla/xla/service/hlo_pass_pipeline.cc:176]   HLO pass float-normalization-f8e4m3fn
2024-11-23 16:27:18.892992: I external/xla/xla/service/hlo_pass_pipeline.cc:177]   Module hash 16325770853001495388
2024-11-23 16:27:18.893002: I external/xla/xla/service/float_normalization.cc:660] FloatNormalization::Run() for f8e4m3fn, before:
2024-11-23 16:27:18.893008: I external/xla/xla/service/float_normalization.cc:660] HloModule SyncTensorsGraph.10, entry_computation_layout={(f32[3,8]{1,0}, f32[3,3]{1,0})->f32[3,8]{1,0}}
2024-11-23 16:27:18.893010: I external/xla/xla/service/float_normalization.cc:660] 
2024-11-23 16:27:18.893013: I external/xla/xla/service/float_normalization.cc:660] ENTRY %main.5 (Arg_0.1: f32[3,8], Arg_1.2: f32[3,3]) -> f32[3,8] {
2024-11-23 16:27:18.893016: I external/xla/xla/service/float_normalization.cc:660]   %Arg_1.2 = f32[3,3]{1,0} parameter(1), metadata={op_name="xla__device_data"}
2024-11-23 16:27:18.893019: I external/xla/xla/service/float_normalization.cc:660]   %Arg_0.1 = f32[3,8]{1,0} parameter(0), metadata={op_name="xla__device_data"}
2024-11-23 16:27:18.893022: I external/xla/xla/service/float_normalization.cc:660]   %dot.3 = f32[3,8]{1,0} dot(f32[3,3]{1,0} %Arg_1.2, f32[3,8]{1,0} %Arg_0.1), lhs_contracting_dims={1}, rhs_contracting_dims={0}, metadata={op_name="aten__einsum" source_file="/usr/local/lib/python3.10/dist-packages/torch/functional.py" source_line=402}
2024-11-23 16:27:18.893024: I external/xla/xla/service/float_normalization.cc:660]   ROOT %add.4 = f32[3,8]{1,0} add(f32[3,8]{1,0} %dot.3, f32[3,8]{1,0} %Arg_0.1), metadata={op_name="aten__add.1/aten__add" source_file="/root/xla/lzy.py" source_line=13}
2024-11-23 16:27:18.893027: I external/xla/xla/service/float_normalization.cc:660] }
2024-11-23 16:27:18.893030: I external/xla/xla/service/float_normalization.cc:660] 
2024-11-23 16:27:18.893033: I external/xla/xla/service/call_graph.cc:323] Building call graph for:
2024-11-23 16:27:18.893043: I external/xla/xla/service/call_graph.cc:324] HloModule SyncTensorsGraph.10, entry_computation_layout={(f32[3,8]{1,0}, f32[3,3]{1,0})->f32[3,8]{1,0}}
2024-11-23 16:27:18.893046: I external/xla/xla/service/call_graph.cc:324] 
2024-11-23 16:27:18.893049: I external/xla/xla/service/call_graph.cc:324] ENTRY %main.5 (Arg_0.1: f32[3,8], Arg_1.2: f32[3,3]) -> f32[3,8] {
2024-11-23 16:27:18.893051: I external/xla/xla/service/call_graph.cc:324]   %Arg_1.2 = f32[3,3]{1,0} parameter(1), metadata={op_name="xla__device_data"}
2024-11-23 16:27:18.893054: I external/xla/xla/service/call_graph.cc:324]   %Arg_0.1 = f32[3,8]{1,0} parameter(0), metadata={op_name="xla__device_data"}
2024-11-23 16:27:18.893057: I external/xla/xla/service/call_graph.cc:324]   %dot.3 = f32[3,8]{1,0} dot(f32[3,3]{1,0} %Arg_1.2, f32[3,8]{1,0} %Arg_0.1), lhs_contracting_dims={1}, rhs_contracting_dims={0}, metadata={op_name="aten__einsum" source_file="/usr/local/lib/python3.10/dist-packages/torch/functional.py" source_line=402}
2024-11-23 16:27:18.893060: I external/xla/xla/service/call_graph.cc:324]   ROOT %add.4 = f32[3,8]{1,0} add(f32[3,8]{1,0} %dot.3, f32[3,8]{1,0} %Arg_0.1), metadata={op_name="aten__add.1/aten__add" source_file="/root/xla/lzy.py" source_line=13}
2024-11-23 16:27:18.893063: I external/xla/xla/service/call_graph.cc:324] }
2024-11-23 16:27:18.893065: I external/xla/xla/service/call_graph.cc:324] 
2024-11-23 16:27:18.893070: I external/xla/xla/service/call_graph.cc:361] Call graph for module SyncTensorsGraph.10:
2024-11-23 16:27:18.893073: I external/xla/xla/service/call_graph.cc:361] Computation main.5:
2024-11-23 16:27:18.893075: I external/xla/xla/service/call_graph.cc:361]   calls:
2024-11-23 16:27:18.893078: I external/xla/xla/service/call_graph.cc:361]   called by:
2024-11-23 16:27:18.893081: I external/xla/xla/service/call_graph.cc:361]   callsites:
2024-11-23 16:27:18.893084: I external/xla/xla/hlo/ir/hlo_computation.cc:1492] Unreachable roots:
2024-11-23 16:27:18.893087: I external/xla/xla/hlo/ir/hlo_instruction.cc:4582] HloInstruction::Accept(%add.4)
2024-11-23 16:27:18.893090: I external/xla/xla/hlo/ir/hlo_instruction.cc:4516] Visiting HLO %Arg_1.2
2024-11-23 16:27:18.893092: I external/xla/xla/hlo/ir/hlo_instruction.cc:4516] Visiting HLO %Arg_0.1
2024-11-23 16:27:18.893095: I external/xla/xla/hlo/ir/hlo_instruction.cc:4516] Visiting HLO %dot.3
2024-11-23 16:27:18.893102: I external/xla/xla/hlo/ir/hlo_instruction.cc:4507] Not visiting HLO (id = 1) as it was already visited.
2024-11-23 16:27:18.893105: I external/xla/xla/hlo/ir/hlo_instruction.cc:4516] Visiting HLO %add.4
2024-11-23 16:27:18.893115: I external/xla/xla/service/float_normalization.cc:674] FloatNormalization::Run() for f8e4m3fn, after:
2024-11-23 16:27:18.893119: I external/xla/xla/service/float_normalization.cc:674] HloModule SyncTensorsGraph.10, entry_computation_layout={(f32[3,8]{1,0}, f32[3,3]{1,0})->f32[3,8]{1,0}}
2024-11-23 16:27:18.893121: I external/xla/xla/service/float_normalization.cc:674] 
2024-11-23 16:27:18.893124: I external/xla/xla/service/float_normalization.cc:674] ENTRY %main.5 (Arg_0.1: f32[3,8], Arg_1.2: f32[3,3]) -> f32[3,8] {
2024-11-23 16:27:18.893127: I external/xla/xla/service/float_normalization.cc:674]   %Arg_1.2 = f32[3,3]{1,0} parameter(1), metadata={op_name="xla__device_data"}
2024-11-23 16:27:18.893130: I external/xla/xla/service/float_normalization.cc:674]   %Arg_0.1 = f32[3,8]{1,0} parameter(0), metadata={op_name="xla__device_data"}
2024-11-23 16:27:18.893133: I external/xla/xla/service/float_normalization.cc:674]   %dot.3 = f32[3,8]{1,0} dot(f32[3,3]{1,0} %Arg_1.2, f32[3,8]{1,0} %Arg_0.1), lhs_contracting_dims={1}, rhs_contracting_dims={0}, metadata={op_name="aten__einsum" source_file="/usr/local/lib/python3.10/dist-packages/torch/functional.py" source_line=402}
2024-11-23 16:27:18.893135: I external/xla/xla/service/float_normalization.cc:674]   ROOT %add.4 = f32[3,8]{1,0} add(f32[3,8]{1,0} %dot.3, f32[3,8]{1,0} %Arg_0.1), metadata={op_name="aten__add.1/aten__add" source_file="/root/xla/lzy.py" source_line=13}
2024-11-23 16:27:18.893138: I external/xla/xla/service/float_normalization.cc:674] }
2024-11-23 16:27:18.893145: I external/xla/xla/service/float_normalization.cc:674] 
2024-11-23 16:27:18.893150: I external/xla/xla/service/hlo_pass_pipeline.cc:171] HLO pass: float-normalization-f8e4m3fn time: 160 us (cumulative: 1.01 ms, max: 160 us, #called: 27)
2024-11-23 16:27:18.893153: I external/xla/xla/service/hlo_pass_pipeline.cc:176]   HLO pass float-normalization-f8e4m3b11fnuz
2024-11-23 16:27:18.893157: I external/xla/xla/service/hlo_pass_pipeline.cc:177]   Module hash 16325770853001495388
2024-11-23 16:27:18.893168: I external/xla/xla/service/float_normalization.cc:660] FloatNormalization::Run() for f8e4m3b11fnuz, before:
2024-11-23 16:27:18.893171: I external/xla/xla/service/float_normalization.cc:660] HloModule SyncTensorsGraph.10, entry_computation_layout={(f32[3,8]{1,0}, f32[3,3]{1,0})->f32[3,8]{1,0}}
2024-11-23 16:27:18.893174: I external/xla/xla/service/float_normalization.cc:660] 
2024-11-23 16:27:18.893176: I external/xla/xla/service/float_normalization.cc:660] ENTRY %main.5 (Arg_0.1: f32[3,8], Arg_1.2: f32[3,3]) -> f32[3,8] {
2024-11-23 16:27:18.893179: I external/xla/xla/service/float_normalization.cc:660]   %Arg_1.2 = f32[3,3]{1,0} parameter(1), metadata={op_name="xla__device_data"}
2024-11-23 16:27:18.893182: I external/xla/xla/service/float_normalization.cc:660]   %Arg_0.1 = f32[3,8]{1,0} parameter(0), metadata={op_name="xla__device_data"}
2024-11-23 16:27:18.893185: I external/xla/xla/service/float_normalization.cc:660]   %dot.3 = f32[3,8]{1,0} dot(f32[3,3]{1,0} %Arg_1.2, f32[3,8]{1,0} %Arg_0.1), lhs_contracting_dims={1}, rhs_contracting_dims={0}, metadata={op_name="aten__einsum" source_file="/usr/local/lib/python3.10/dist-packages/torch/functional.py" source_line=402}
2024-11-23 16:27:18.893188: I external/xla/xla/service/float_normalization.cc:660]   ROOT %add.4 = f32[3,8]{1,0} add(f32[3,8]{1,0} %dot.3, f32[3,8]{1,0} %Arg_0.1), metadata={op_name="aten__add.1/aten__add" source_file="/root/xla/lzy.py" source_line=13}
2024-11-23 16:27:18.893190: I external/xla/xla/service/float_normalization.cc:660] }
2024-11-23 16:27:18.893193: I external/xla/xla/service/float_normalization.cc:660] 
2024-11-23 16:27:18.893196: I external/xla/xla/service/call_graph.cc:323] Building call graph for:
2024-11-23 16:27:18.893206: I external/xla/xla/service/call_graph.cc:324] HloModule SyncTensorsGraph.10, entry_computation_layout={(f32[3,8]{1,0}, f32[3,3]{1,0})->f32[3,8]{1,0}}
2024-11-23 16:27:18.893211: I external/xla/xla/service/call_graph.cc:324] 
2024-11-23 16:27:18.893214: I external/xla/xla/service/call_graph.cc:324] ENTRY %main.5 (Arg_0.1: f32[3,8], Arg_1.2: f32[3,3]) -> f32[3,8] {
2024-11-23 16:27:18.893217: I external/xla/xla/service/call_graph.cc:324]   %Arg_1.2 = f32[3,3]{1,0} parameter(1), metadata={op_name="xla__device_data"}
2024-11-23 16:27:18.893219: I external/xla/xla/service/call_graph.cc:324]   %Arg_0.1 = f32[3,8]{1,0} parameter(0), metadata={op_name="xla__device_data"}
2024-11-23 16:27:18.893222: I external/xla/xla/service/call_graph.cc:324]   %dot.3 = f32[3,8]{1,0} dot(f32[3,3]{1,0} %Arg_1.2, f32[3,8]{1,0} %Arg_0.1), lhs_contracting_dims={1}, rhs_contracting_dims={0}, metadata={op_name="aten__einsum" source_file="/usr/local/lib/python3.10/dist-packages/torch/functional.py" source_line=402}
2024-11-23 16:27:18.893225: I external/xla/xla/service/call_graph.cc:324]   ROOT %add.4 = f32[3,8]{1,0} add(f32[3,8]{1,0} %dot.3, f32[3,8]{1,0} %Arg_0.1), metadata={op_name="aten__add.1/aten__add" source_file="/root/xla/lzy.py" source_line=13}
2024-11-23 16:27:18.893228: I external/xla/xla/service/call_graph.cc:324] }
2024-11-23 16:27:18.893230: I external/xla/xla/service/call_graph.cc:324] 
2024-11-23 16:27:18.893235: I external/xla/xla/service/call_graph.cc:361] Call graph for module SyncTensorsGraph.10:
2024-11-23 16:27:18.893238: I external/xla/xla/service/call_graph.cc:361] Computation main.5:
2024-11-23 16:27:18.893241: I external/xla/xla/service/call_graph.cc:361]   calls:
2024-11-23 16:27:18.893243: I external/xla/xla/service/call_graph.cc:361]   called by:
2024-11-23 16:27:18.893246: I external/xla/xla/service/call_graph.cc:361]   callsites:
2024-11-23 16:27:18.893249: I external/xla/xla/hlo/ir/hlo_computation.cc:1492] Unreachable roots:
2024-11-23 16:27:18.893252: I external/xla/xla/hlo/ir/hlo_instruction.cc:4582] HloInstruction::Accept(%add.4)
2024-11-23 16:27:18.893255: I external/xla/xla/hlo/ir/hlo_instruction.cc:4516] Visiting HLO %Arg_1.2
2024-11-23 16:27:18.893258: I external/xla/xla/hlo/ir/hlo_instruction.cc:4516] Visiting HLO %Arg_0.1
2024-11-23 16:27:18.893260: I external/xla/xla/hlo/ir/hlo_instruction.cc:4516] Visiting HLO %dot.3
2024-11-23 16:27:18.893263: I external/xla/xla/hlo/ir/hlo_instruction.cc:4507] Not visiting HLO (id = 1) as it was already visited.
2024-11-23 16:27:18.893266: I external/xla/xla/hlo/ir/hlo_instruction.cc:4516] Visiting HLO %add.4
2024-11-23 16:27:18.893277: I external/xla/xla/service/float_normalization.cc:674] FloatNormalization::Run() for f8e4m3b11fnuz, after:
2024-11-23 16:27:18.893280: I external/xla/xla/service/float_normalization.cc:674] HloModule SyncTensorsGraph.10, entry_computation_layout={(f32[3,8]{1,0}, f32[3,3]{1,0})->f32[3,8]{1,0}}
2024-11-23 16:27:18.893283: I external/xla/xla/service/float_normalization.cc:674] 
2024-11-23 16:27:18.893286: I external/xla/xla/service/float_normalization.cc:674] ENTRY %main.5 (Arg_0.1: f32[3,8], Arg_1.2: f32[3,3]) -> f32[3,8] {
2024-11-23 16:27:18.893289: I external/xla/xla/service/float_normalization.cc:674]   %Arg_1.2 = f32[3,3]{1,0} parameter(1), metadata={op_name="xla__device_data"}
2024-11-23 16:27:18.893291: I external/xla/xla/service/float_normalization.cc:674]   %Arg_0.1 = f32[3,8]{1,0} parameter(0), metadata={op_name="xla__device_data"}
2024-11-23 16:27:18.893294: I external/xla/xla/service/float_normalization.cc:674]   %dot.3 = f32[3,8]{1,0} dot(f32[3,3]{1,0} %Arg_1.2, f32[3,8]{1,0} %Arg_0.1), lhs_contracting_dims={1}, rhs_contracting_dims={0}, metadata={op_name="aten__einsum" source_file="/usr/local/lib/python3.10/dist-packages/torch/functional.py" source_line=402}
2024-11-23 16:27:18.893297: I external/xla/xla/service/float_normalization.cc:674]   ROOT %add.4 = f32[3,8]{1,0} add(f32[3,8]{1,0} %dot.3, f32[3,8]{1,0} %Arg_0.1), metadata={op_name="aten__add.1/aten__add" source_file="/root/xla/lzy.py" source_line=13}
2024-11-23 16:27:18.893300: I external/xla/xla/service/float_normalization.cc:674] }
2024-11-23 16:27:18.893304: I external/xla/xla/service/float_normalization.cc:674] 
2024-11-23 16:27:18.893309: I external/xla/xla/service/hlo_pass_pipeline.cc:171] HLO pass: float-normalization-f8e4m3b11fnuz time: 154 us (cumulative: 1.16 ms, max: 160 us, #called: 28)
2024-11-23 16:27:18.893312: I external/xla/xla/service/hlo_pass_pipeline.cc:176]   HLO pass float-normalization-f8e5m2fnuz
2024-11-23 16:27:18.893316: I external/xla/xla/service/hlo_pass_pipeline.cc:177]   Module hash 16325770853001495388
2024-11-23 16:27:18.893326: I external/xla/xla/service/float_normalization.cc:660] FloatNormalization::Run() for f8e5m2fnuz, before:
2024-11-23 16:27:18.893330: I external/xla/xla/service/float_normalization.cc:660] HloModule SyncTensorsGraph.10, entry_computation_layout={(f32[3,8]{1,0}, f32[3,3]{1,0})->f32[3,8]{1,0}}
2024-11-23 16:27:18.893332: I external/xla/xla/service/float_normalization.cc:660] 
2024-11-23 16:27:18.893335: I external/xla/xla/service/float_normalization.cc:660] ENTRY %main.5 (Arg_0.1: f32[3,8], Arg_1.2: f32[3,3]) -> f32[3,8] {
2024-11-23 16:27:18.893338: I external/xla/xla/service/float_normalization.cc:660]   %Arg_1.2 = f32[3,3]{1,0} parameter(1), metadata={op_name="xla__device_data"}
2024-11-23 16:27:18.893341: I external/xla/xla/service/float_normalization.cc:660]   %Arg_0.1 = f32[3,8]{1,0} parameter(0), metadata={op_name="xla__device_data"}
2024-11-23 16:27:18.893343: I external/xla/xla/service/float_normalization.cc:660]   %dot.3 = f32[3,8]{1,0} dot(f32[3,3]{1,0} %Arg_1.2, f32[3,8]{1,0} %Arg_0.1), lhs_contracting_dims={1}, rhs_contracting_dims={0}, metadata={op_name="aten__einsum" source_file="/usr/local/lib/python3.10/dist-packages/torch/functional.py" source_line=402}
2024-11-23 16:27:18.893346: I external/xla/xla/service/float_normalization.cc:660]   ROOT %add.4 = f32[3,8]{1,0} add(f32[3,8]{1,0} %dot.3, f32[3,8]{1,0} %Arg_0.1), metadata={op_name="aten__add.1/aten__add" source_file="/root/xla/lzy.py" source_line=13}
2024-11-23 16:27:18.893349: I external/xla/xla/service/float_normalization.cc:660] }
2024-11-23 16:27:18.893352: I external/xla/xla/service/float_normalization.cc:660] 
2024-11-23 16:27:18.893355: I external/xla/xla/service/call_graph.cc:323] Building call graph for:
2024-11-23 16:27:18.893364: I external/xla/xla/service/call_graph.cc:324] HloModule SyncTensorsGraph.10, entry_computation_layout={(f32[3,8]{1,0}, f32[3,3]{1,0})->f32[3,8]{1,0}}
2024-11-23 16:27:18.893368: I external/xla/xla/service/call_graph.cc:324] 
…
2024-11-23 16:27:19.225068: I external/xla/xla/service/cpu/compiler_functor.cc:104] reduce-window.loop_body.dim.1:                    ; preds = %reduce-window.loop_header.dim.1
2024-11-23 16:27:19.225071: I external/xla/xla/service/cpu/compiler_functor.cc:104]   %4 = load float, ptr %arg1, align 4, !invariant.load !0, !noalias !5
2024-11-23 16:27:19.225073: I external/xla/xla/service/cpu/compiler_functor.cc:104]   store float %4, ptr %reduce_window_accum_ptr, align 4
2024-11-23 16:27:19.225076: I external/xla/xla/service/cpu/compiler_functor.cc:104]   store i64 0, ptr %reduce-window.invar_address.window.0, align 8
2024-11-23 16:27:19.225097: I external/xla/xla/service/cpu/compiler_functor.cc:104]   br label %reduce-window.loop_header.window.0
2024-11-23 16:27:19.225102: I external/xla/xla/service/cpu/compiler_functor.cc:104] 
2024-11-23 16:27:19.225105: I external/xla/xla/service/cpu/compiler_functor.cc:104] reduce-window.loop_header.window.0:               ; preds = %reduce-window.loop_exit.window.1, %reduce-window.loop_body.dim.1
2024-11-23 16:27:19.225107: I external/xla/xla/service/cpu/compiler_functor.cc:104]   %reduce-window.indvar.window.0 = load i64, ptr %reduce-window.invar_address.window.0, align 8
2024-11-23 16:27:19.225110: I external/xla/xla/service/cpu/compiler_functor.cc:104]   %5 = icmp uge i64 %reduce-window.indvar.window.0, 32
2024-11-23 16:27:19.225113: I external/xla/xla/service/cpu/compiler_functor.cc:104]   br i1 %5, label %reduce-window.loop_exit.window.0, label %reduce-window.loop_body.window.0
2024-11-23 16:27:19.225115: I external/xla/xla/service/cpu/compiler_functor.cc:104] 
2024-11-23 16:27:19.225118: I external/xla/xla/service/cpu/compiler_functor.cc:104] reduce-window.loop_body.window.0:                 ; preds = %reduce-window.loop_header.window.0
2024-11-23 16:27:19.225121: I external/xla/xla/service/cpu/compiler_functor.cc:104]   store i64 0, ptr %reduce-window.invar_address.window.1, align 8
2024-11-23 16:27:19.225124: I external/xla/xla/service/cpu/compiler_functor.cc:104]   br label %reduce-window.loop_header.window.1
2024-11-23 16:27:19.225126: I external/xla/xla/service/cpu/compiler_functor.cc:104] 
2024-11-23 16:27:19.225129: I external/xla/xla/service/cpu/compiler_functor.cc:104] reduce-window.loop_header.window.1:               ; preds = %in_bounds-after, %reduce-window.loop_body.window.0
2024-11-23 16:27:19.225132: I external/xla/xla/service/cpu/compiler_functor.cc:104]   %reduce-window.indvar.window.1 = load i64, ptr %reduce-window.invar_address.window.1, align 8
2024-11-23 16:27:19.225134: I external/xla/xla/service/cpu/compiler_functor.cc:104]   %6 = icmp uge i64 %reduce-window.indvar.window.1, 8
2024-11-23 16:27:19.225137: I external/xla/xla/service/cpu/compiler_functor.cc:104]   br i1 %6, label %reduce-window.loop_exit.window.1, label %reduce-window.loop_body.window.1
2024-11-23 16:27:19.225140: I external/xla/xla/service/cpu/compiler_functor.cc:104] 
2024-11-23 16:27:19.225142: I external/xla/xla/service/cpu/compiler_functor.cc:104] reduce-window.loop_body.window.1:                 ; preds = %reduce-window.loop_header.window.1
2024-11-23 16:27:19.225145: I external/xla/xla/service/cpu/compiler_functor.cc:104]   %7 = mul nsw i64 %reduce-window.indvar.dim.0, 32
2024-11-23 16:27:19.225148: I external/xla/xla/service/cpu/compiler_functor.cc:104]   %8 = mul nsw i64 %reduce-window.indvar.window.0, 1
2024-11-23 16:27:19.225151: I external/xla/xla/service/cpu/compiler_functor.cc:104]   %9 = add nsw i64 %7, %8
2024-11-23 16:27:19.225154: I external/xla/xla/service/cpu/compiler_functor.cc:104]   %10 = sub nsw i64 %9, 0
2024-11-23 16:27:19.225157: I external/xla/xla/service/cpu/compiler_functor.cc:104]   %11 = srem i64 %10, 1
2024-11-23 16:27:19.225159: I external/xla/xla/service/cpu/compiler_functor.cc:104]   %12 = icmp eq i64 %11, 0
2024-11-23 16:27:19.225162: I external/xla/xla/service/cpu/compiler_functor.cc:104]   %13 = and i1 true, %12
2024-11-23 16:27:19.225165: I external/xla/xla/service/cpu/compiler_functor.cc:104]   %14 = sdiv i64 %10, 1
2024-11-23 16:27:19.225168: I external/xla/xla/service/cpu/compiler_functor.cc:104]   %15 = icmp ult i64 %14, 512
2024-11-23 16:27:19.225170: I external/xla/xla/service/cpu/compiler_functor.cc:104]   %16 = and i1 %13, %15
2024-11-23 16:27:19.225281: I external/xla/xla/service/cpu/compiler_functor.cc:104]   %17 = mul nsw i64 %reduce-window.indvar.dim.1, 8
2024-11-23 16:27:19.225286: I external/xla/xla/service/cpu/compiler_functor.cc:104]   %18 = mul nsw i64 %reduce-window.indvar.window.1, 1
2024-11-23 16:27:19.225289: I external/xla/xla/service/cpu/compiler_functor.cc:104]   %19 = add nsw i64 %17, %18
2024-11-23 16:27:19.225292: I external/xla/xla/service/cpu/compiler_functor.cc:104]   %20 = sub nsw i64 %19, 0
2024-11-23 16:27:19.225314: I external/xla/xla/service/cpu/compiler_functor.cc:104]   %21 = srem i64 %20, 1
2024-11-23 16:27:19.225319: I external/xla/xla/service/cpu/compiler_functor.cc:104]   %22 = icmp eq i64 %21, 0
2024-11-23 16:27:19.225322: I external/xla/xla/service/cpu/compiler_functor.cc:104]   %23 = and i1 %16, %22
2024-11-23 16:27:19.225325: I external/xla/xla/service/cpu/compiler_functor.cc:104]   %24 = sdiv i64 %20, 1
2024-11-23 16:27:19.225328: I external/xla/xla/service/cpu/compiler_functor.cc:104]   %25 = icmp ult i64 %24, 8
2024-11-23 16:27:19.225330: I external/xla/xla/service/cpu/compiler_functor.cc:104]   %26 = and i1 %23, %25
2024-11-23 16:27:19.225333: I external/xla/xla/service/cpu/compiler_functor.cc:104]   br i1 %26, label %in_bounds-true, label %in_bounds-false
2024-11-23 16:27:19.225336: I external/xla/xla/service/cpu/compiler_functor.cc:104] 
2024-11-23 16:27:19.225339: I external/xla/xla/service/cpu/compiler_functor.cc:104] in_bounds-after:                                  ; preds = %in_bounds-false, %in_bounds-true
2024-11-23 16:27:19.225342: I external/xla/xla/service/cpu/compiler_functor.cc:104]   %invar.inc7 = add nuw nsw i64 %reduce-window.indvar.window.1, 1
2024-11-23 16:27:19.225344: I external/xla/xla/service/cpu/compiler_functor.cc:104]   store i64 %invar.inc7, ptr %reduce-window.invar_address.window.1, align 8
2024-11-23 16:27:19.225347: I external/xla/xla/service/cpu/compiler_functor.cc:104]   br label %reduce-window.loop_header.window.1
2024-11-23 16:27:19.225350: I external/xla/xla/service/cpu/compiler_functor.cc:104] 
2024-11-23 16:27:19.225353: I external/xla/xla/service/cpu/compiler_functor.cc:104] reduce-window.loop_exit.window.1:                 ; preds = %reduce-window.loop_header.window.1
2024-11-23 16:27:19.225355: I external/xla/xla/service/cpu/compiler_functor.cc:104]   %invar.inc6 = add nuw nsw i64 %reduce-window.indvar.window.0, 1
2024-11-23 16:27:19.225358: I external/xla/xla/service/cpu/compiler_functor.cc:104]   store i64 %invar.inc6, ptr %reduce-window.invar_address.window.0, align 8
2024-11-23 16:27:19.225361: I external/xla/xla/service/cpu/compiler_functor.cc:104]   br label %reduce-window.loop_header.window.0
2024-11-23 16:27:19.225364: I external/xla/xla/service/cpu/compiler_functor.cc:104] 
2024-11-23 16:27:19.225366: I external/xla/xla/service/cpu/compiler_functor.cc:104] reduce-window.loop_exit.window.0:                 ; preds = %reduce-window.loop_header.window.0
2024-11-23 16:27:19.225369: I external/xla/xla/service/cpu/compiler_functor.cc:104]   %27 = load float, ptr %reduce_window_accum_ptr, align 4
2024-11-23 16:27:19.225372: I external/xla/xla/service/cpu/compiler_functor.cc:104]   %28 = getelementptr inbounds [16 x [1 x float]], ptr %arg2, i64 0, i64 %reduce-window.indvar.dim.0, i64 0
2024-11-23 16:27:19.225375: I external/xla/xla/service/cpu/compiler_functor.cc:104]   store float %27, ptr %28, align 4, !alias.scope !5
2024-11-23 16:27:19.225377: I external/xla/xla/service/cpu/compiler_functor.cc:104]   %invar.inc5 = add nuw nsw i64 %reduce-window.indvar.dim.1, 1
2024-11-23 16:27:19.225380: I external/xla/xla/service/cpu/compiler_functor.cc:104]   store i64 %invar.inc5, ptr %reduce-window.invar_address.dim.1, align 8
2024-11-23 16:27:19.225383: I external/xla/xla/service/cpu/compiler_functor.cc:104]   br label %reduce-window.loop_header.dim.1
2024-11-23 16:27:19.225386: I external/xla/xla/service/cpu/compiler_functor.cc:104] 
2024-11-23 16:27:19.225388: I external/xla/xla/service/cpu/compiler_functor.cc:104] reduce-window.loop_exit.dim.1:                    ; preds = %reduce-window.loop_header.dim.1
2024-11-23 16:27:19.225391: I external/xla/xla/service/cpu/compiler_functor.cc:104]   %invar.inc = add nuw nsw i64 %reduce-window.indvar.dim.0, 1
2024-11-23 16:27:19.225394: I external/xla/xla/service/cpu/compiler_functor.cc:104]   store i64 %invar.inc, ptr %reduce-window.invar_address.dim.0, align 8
2024-11-23 16:27:19.225397: I external/xla/xla/service/cpu/compiler_functor.cc:104]   br label %reduce-window.loop_header.dim.0
2024-11-23 16:27:19.225419: I external/xla/xla/service/cpu/compiler_functor.cc:104] 
2024-11-23 16:27:19.225423: I external/xla/xla/service/cpu/compiler_functor.cc:104] reduce-window.loop_exit.dim.0:                    ; preds = %reduce-window.loop_header.dim.0
2024-11-23 16:27:19.225426: I external/xla/xla/service/cpu/compiler_functor.cc:104]   br label %return
2024-11-23 16:27:19.225429: I external/xla/xla/service/cpu/compiler_functor.cc:104] 
2024-11-23 16:27:19.225432: I external/xla/xla/service/cpu/compiler_functor.cc:104] return:                                           ; preds = %reduce-window.loop_exit.dim.0
2024-11-23 16:27:19.225435: I external/xla/xla/service/cpu/compiler_functor.cc:104]   ret ptr null
2024-11-23 16:27:19.225438: I external/xla/xla/service/cpu/compiler_functor.cc:104] 
2024-11-23 16:27:19.225440: I external/xla/xla/service/cpu/compiler_functor.cc:104] in_bounds-true:                                   ; preds = %reduce-window.loop_body.window.1
2024-11-23 16:27:19.225443: I external/xla/xla/service/cpu/compiler_functor.cc:104]   %29 = getelementptr inbounds [512 x [8 x float]], ptr %arg0, i64 0, i64 %14, i64 %24
2024-11-23 16:27:19.225446: I external/xla/xla/service/cpu/compiler_functor.cc:104]   %30 = load float, ptr %29, align 4, !invariant.load !0, !noalias !5
2024-11-23 16:27:19.225449: I external/xla/xla/service/cpu/compiler_functor.cc:104]   %31 = load float, ptr %reduce_window_accum_ptr, align 4
2024-11-23 16:27:19.225451: I external/xla/xla/service/cpu/compiler_functor.cc:104]   store float %31, ptr %arg_addr, align 4
2024-11-23 16:27:19.225454: I external/xla/xla/service/cpu/compiler_functor.cc:104]   store float %30, ptr %arg_addr8, align 4
2024-11-23 16:27:19.225457: I external/xla/xla/service/cpu/compiler_functor.cc:104]   %32 = getelementptr inbounds ptr, ptr %reducer_function_parameter_addresses, i64 0
2024-11-23 16:27:19.225460: I external/xla/xla/service/cpu/compiler_functor.cc:104]   store ptr %arg_addr, ptr %32, align 8
2024-11-23 16:27:19.225462: I external/xla/xla/service/cpu/compiler_functor.cc:104]   %33 = getelementptr inbounds ptr, ptr %reducer_function_parameter_addresses, i64 1
2024-11-23 16:27:19.225465: I external/xla/xla/service/cpu/compiler_functor.cc:104]   store ptr %arg_addr8, ptr %33, align 8
2024-11-23 16:27:19.225469: I external/xla/xla/service/cpu/compiler_functor.cc:104]   call void @reducer_function(ptr %reducer_function_return_value_addr, ptr null, ptr %reducer_function_parameter_addresses, ptr null, ptr null, ptr null)
2024-11-23 16:27:19.225471: I external/xla/xla/service/cpu/compiler_functor.cc:104]   %34 = load float, ptr %reducer_function_return_value_addr, align 4
2024-11-23 16:27:19.225474: I external/xla/xla/service/cpu/compiler_functor.cc:104]   store float %34, ptr %reduce_window_accum_ptr, align 4
2024-11-23 16:27:19.225477: I external/xla/xla/service/cpu/compiler_functor.cc:104]   br label %in_bounds-after
2024-11-23 16:27:19.225480: I external/xla/xla/service/cpu/compiler_functor.cc:104] 
2024-11-23 16:27:19.225482: I external/xla/xla/service/cpu/compiler_functor.cc:104] in_bounds-false:                                  ; preds = %reduce-window.loop_body.window.1
2024-11-23 16:27:19.225485: I external/xla/xla/service/cpu/compiler_functor.cc:104]   br label %in_bounds-after
2024-11-23 16:27:19.225488: I external/xla/xla/service/cpu/compiler_functor.cc:104] }
2024-11-23 16:27:19.225491: I external/xla/xla/service/cpu/compiler_functor.cc:104] 
2024-11-23 16:27:19.225493: I external/xla/xla/service/cpu/compiler_functor.cc:104] ; Function Attrs: alwaysinline uwtable
2024-11-23 16:27:19.225497: I external/xla/xla/service/cpu/compiler_functor.cc:104] define internal void @reducer_function(ptr %retval, ptr noalias %run_options, ptr noalias %params, ptr noalias %buffer_table, ptr noalias %status, ptr noalias %prof_counters) #1 {
2024-11-23 16:27:19.225500: I external/xla/xla/service/cpu/compiler_functor.cc:104] entry:
2024-11-23 16:27:19.225503: I external/xla/xla/service/cpu/compiler_functor.cc:104]   %add.8 = alloca float, align 4
2024-11-23 16:27:19.225529: I external/xla/xla/service/cpu/compiler_functor.cc:104]   %0 = getelementptr inbounds ptr, ptr %params, i64 0
2024-11-23 16:27:19.225534: I external/xla/xla/service/cpu/compiler_functor.cc:104]   %Arg_0.6 = load ptr, ptr %0, align 8, !dereferenceable !3, !align !3
2024-11-23 16:27:19.225537: I external/xla/xla/service/cpu/compiler_functor.cc:104]   %1 = getelementptr inbounds ptr, ptr %params, i64 1
2024-11-23 16:27:19.225539: I external/xla/xla/service/cpu/compiler_functor.cc:104]   %Arg_1.7 = load ptr, ptr %1, align 8, !dereferenceable !3, !align !3
2024-11-23 16:27:19.225542: I external/xla/xla/service/cpu/compiler_functor.cc:104]   %2 = load float, ptr %Arg_0.6, align 4, !alias.scope !8, !noalias !11
2024-11-23 16:27:19.225545: I external/xla/xla/service/cpu/compiler_functor.cc:104]   %3 = load float, ptr %Arg_1.7, align 4, !alias.scope !13, !noalias !11
2024-11-23 16:27:19.225548: I external/xla/xla/service/cpu/compiler_functor.cc:104]   %add.81 = fadd reassoc float %2, %3
2024-11-23 16:27:19.225551: I external/xla/xla/service/cpu/compiler_functor.cc:104]   store float %add.81, ptr %add.8, align 4, !alias.scope !11
2024-11-23 16:27:19.225553: I external/xla/xla/service/cpu/compiler_functor.cc:104]   %load_ret_value = load float, ptr %add.8, align 4
2024-11-23 16:27:19.225556: I external/xla/xla/service/cpu/compiler_functor.cc:104]   store float %load_ret_value, ptr %retval, align 4
2024-11-23 16:27:19.225559: I external/xla/xla/service/cpu/compiler_functor.cc:104]   br label %return
2024-11-23 16:27:19.225562: I external/xla/xla/service/cpu/compiler_functor.cc:104] 
2024-11-23 16:27:19.225564: I external/xla/xla/service/cpu/compiler_functor.cc:104] return:                                           ; preds = %entry
2024-11-23 16:27:19.225567: I external/xla/xla/service/cpu/compiler_functor.cc:104]   ret void
2024-11-23 16:27:19.225570: I external/xla/xla/service/cpu/compiler_functor.cc:104] }
2024-11-23 16:27:19.225572: I external/xla/xla/service/cpu/compiler_functor.cc:104] 
2024-11-23 16:27:19.225575: I external/xla/xla/service/cpu/compiler_functor.cc:104] ; Function Attrs: uwtable
2024-11-23 16:27:19.225578: I external/xla/xla/service/cpu/compiler_functor.cc:104] define ptr @reduce.9(ptr %0) #0 {
2024-11-23 16:27:19.225581: I external/xla/xla/service/cpu/compiler_functor.cc:104]   %reduce_function_parameter_addresses = alloca ptr, i32 2, align 8
2024-11-23 16:27:19.225584: I external/xla/xla/service/cpu/compiler_functor.cc:104]   %reduce_function_return_value_addr = alloca float, align 4
2024-11-23 16:27:19.225586: I external/xla/xla/service/cpu/compiler_functor.cc:104]   %arg_addr6 = alloca float, align 4
2024-11-23 16:27:19.225589: I external/xla/xla/service/cpu/compiler_functor.cc:104]   %arg_addr = alloca float, align 4
2024-11-23 16:27:19.225592: I external/xla/xla/service/cpu/compiler_functor.cc:104]   %reduce.9.inner.invar_address.reduction_dim.1 = alloca i64, align 8
2024-11-23 16:27:19.225595: I external/xla/xla/service/cpu/compiler_functor.cc:104]   %reduce.9.inner.invar_address.reduction_dim.0 = alloca i64, align 8
2024-11-23 16:27:19.225597: I external/xla/xla/service/cpu/compiler_functor.cc:104]   %accumulator_0 = alloca float, align 4
2024-11-23 16:27:19.225600: I external/xla/xla/service/cpu/compiler_functor.cc:104]   %tdims_gep = getelementptr inbounds nuw %SE_HOST_KernelCallFrame, ptr %0, i32 0, i32 0
2024-11-23 16:27:19.225603: I external/xla/xla/service/cpu/compiler_functor.cc:104]   %tdims = load ptr, ptr %tdims_gep, align 8
2024-11-23 16:27:19.225606: I external/xla/xla/service/cpu/compiler_functor.cc:104]   %tdim_x_gep = getelementptr inbounds nuw %SE_HOST_KernelThreadDim, ptr %tdims, i32 0, i32 0
2024-11-23 16:27:19.225608: I external/xla/xla/service/cpu/compiler_functor.cc:104]   %tdim_y_gep = getelementptr inbounds nuw %SE_HOST_KernelThreadDim, ptr %tdims, i32 0, i32 1
2024-11-23 16:27:19.225611: I external/xla/xla/service/cpu/compiler_functor.cc:104]   %tdim_z_gep = getelementptr inbounds nuw %SE_HOST_KernelThreadDim, ptr %tdims, i32 0, i32 2
2024-11-23 16:27:19.225657: I external/xla/xla/service/cpu/compiler_functor.cc:104]   %tdim_x = load i64, ptr %tdim_x_gep, align 8
2024-11-23 16:27:19.225662: I external/xla/xla/service/cpu/compiler_functor.cc:104]   %tdim_y = load i64, ptr %tdim_y_gep, align 8
2024-11-23 16:27:19.225665: I external/xla/xla/service/cpu/compiler_functor.cc:104]   %tdim_z = load i64, ptr %tdim_z_gep, align 8
2024-11-23 16:27:19.225668: I external/xla/xla/service/cpu/compiler_functor.cc:104]   %tid_gep = getelementptr inbounds nuw %SE_HOST_KernelCallFrame, ptr %0, i32 0, i32 1
2024-11-23 16:27:19.225670: I external/xla/xla/service/cpu/compiler_functor.cc:104]   %tids = load ptr, ptr %tid_gep, align 8
2024-11-23 16:27:19.225673: I external/xla/xla/service/cpu/compiler_functor.cc:104]   %tid_x_gep = getelementptr inbounds nuw %SE_HOST_KernelThread, ptr %tids, i32 0, i32 0
2024-11-23 16:27:19.225676: I external/xla/xla/service/cpu/compiler_functor.cc:104]   %tid_y_gep = getelementptr inbounds nuw %SE_HOST_KernelThread, ptr %tids, i32 0, i32 1
2024-11-23 16:27:19.225679: I external/xla/xla/service/cpu/compiler_functor.cc:104]   %tid_z_gep = getelementptr inbounds nuw %SE_HOST_KernelThread, ptr %tids, i32 0, i32 2
2024-11-23 16:27:19.225681: I external/xla/xla/service/cpu/compiler_functor.cc:104]   %tid_x = load i64, ptr %tid_x_gep, align 8
2024-11-23 16:27:19.225684: I external/xla/xla/service/cpu/compiler_functor.cc:104]   %tid_y = load i64, ptr %tid_y_gep, align 8
2024-11-23 16:27:19.225687: I external/xla/xla/service/cpu/compiler_functor.cc:104]   %tid_z = load i64, ptr %tid_z_gep, align 8
2024-11-23 16:27:19.225690: I external/xla/xla/service/cpu/compiler_functor.cc:104]   %args_gep = getelementptr inbounds nuw %SE_HOST_KernelCallFrame, ptr %0, i32 0, i32 3
2024-11-23 16:27:19.225692: I external/xla/xla/service/cpu/compiler_functor.cc:104]   %args = load ptr, ptr %args_gep, align 8
2024-11-23 16:27:19.225695: I external/xla/xla/service/cpu/compiler_functor.cc:104]   %arg0_gep = getelementptr %SE_HOST_KernelArg, ptr %args, i32 0, i32 0
2024-11-23 16:27:19.225698: I external/xla/xla/service/cpu/compiler_functor.cc:104]   %arg0 = load ptr, ptr %arg0_gep, align 8, !invariant.load !0, !dereferenceable !4, !align !2
2024-11-23 16:27:19.225701: I external/xla/xla/service/cpu/compiler_functor.cc:104]   %args_gep1 = getelementptr inbounds nuw %SE_HOST_KernelCallFrame, ptr %0, i32 0, i32 3
2024-11-23 16:27:19.225703: I external/xla/xla/service/cpu/compiler_functor.cc:104]   %args2 = load ptr, ptr %args_gep1, align 8
2024-11-23 16:27:19.225706: I external/xla/xla/service/cpu/compiler_functor.cc:104]   %arg1_gep = getelementptr %SE_HOST_KernelArg, ptr %args2, i32 1, i32 0
2024-11-23 16:27:19.225709: I external/xla/xla/service/cpu/compiler_functor.cc:104]   %arg1 = load ptr, ptr %arg1_gep, align 8, !invariant.load !0, !dereferenceable !3, !align !2
2024-11-23 16:27:19.225712: I external/xla/xla/service/cpu/compiler_functor.cc:104]   %args_gep3 = getelementptr inbounds nuw %SE_HOST_KernelCallFrame, ptr %0, i32 0, i32 3
2024-11-23 16:27:19.225714: I external/xla/xla/service/cpu/compiler_functor.cc:104]   %args4 = load ptr, ptr %args_gep3, align 8
2024-11-23 16:27:19.225717: I external/xla/xla/service/cpu/compiler_functor.cc:104]   %arg2_gep = getelementptr %SE_HOST_KernelArg, ptr %args4, i32 2, i32 0
2024-11-23 16:27:19.225720: I external/xla/xla/service/cpu/compiler_functor.cc:104]   %arg2 = load ptr, ptr %arg2_gep, align 8, !invariant.load !0, !dereferenceable !3, !align !2
2024-11-23 16:27:19.225723: I external/xla/xla/service/cpu/compiler_functor.cc:104]   %2 = load float, ptr %arg1, align 4, !invariant.load !0, !noalias !15
2024-11-23 16:27:19.225726: I external/xla/xla/service/cpu/compiler_functor.cc:104]   store float %2, ptr %accumulator_0, align 4
2024-11-23 16:27:19.225728: I external/xla/xla/service/cpu/compiler_functor.cc:104]   store i64 0, ptr %reduce.9.inner.invar_address.reduction_dim.0, align 8
2024-11-23 16:27:19.225731: I external/xla/xla/service/cpu/compiler_functor.cc:104]   br label %reduce.9.inner.loop_header.reduction_dim.0
2024-11-23 16:27:19.225734: I external/xla/xla/service/cpu/compiler_functor.cc:104] 
2024-11-23 16:27:19.225758: I external/xla/xla/service/cpu/compiler_functor.cc:104] reduce.9.inner.loop_header.reduction_dim.0:       ; preds = %reduce.9.inner.loop_exit.reduction_dim.1, %1
2024-11-23 16:27:19.225763: I external/xla/xla/service/cpu/compiler_functor.cc:104]   %reduce.9.inner.indvar.reduction_dim.0 = load i64, ptr %reduce.9.inner.invar_address.reduction_dim.0, align 8
2024-11-23 16:27:19.225766: I external/xla/xla/service/cpu/compiler_functor.cc:104]   %3 = icmp uge i64 %reduce.9.inner.indvar.reduction_dim.0, 16
2024-11-23 16:27:19.225768: I external/xla/xla/service/cpu/compiler_functor.cc:104]   br i1 %3, label %reduce.9.inner.loop_exit.reduction_dim.0, label %reduce.9.inner.loop_body.reduction_dim.0
2024-11-23 16:27:19.225771: I external/xla/xla/service/cpu/compiler_functor.cc:104] 
2024-11-23 16:27:19.225774: I external/xla/xla/service/cpu/compiler_functor.cc:104] reduce.9.inner.loop_body.reduction_dim.0:         ; preds = %reduce.9.inner.loop_header.reduction_dim.0
2024-11-23 16:27:19.225776: I external/xla/xla/service/cpu/compiler_functor.cc:104]   store i64 0, ptr %reduce.9.inner.invar_address.reduction_dim.1, align 8
2024-11-23 16:27:19.225779: I external/xla/xla/service/cpu/compiler_functor.cc:104]   br label %reduce.9.inner.loop_header.reduction_dim.1
2024-11-23 16:27:19.225782: I external/xla/xla/service/cpu/compiler_functor.cc:104] 
2024-11-23 16:27:19.225785: I external/xla/xla/service/cpu/compiler_functor.cc:104] reduce.9.inner.loop_header.reduction_dim.1:       ; preds = %reduce.9.inner.loop_body.reduction_dim.1, %reduce.9.inner.loop_body.reduction_dim.0
2024-11-23 16:27:19.225787: I external/xla/xla/service/cpu/compiler_functor.cc:104]   %reduce.9.inner.indvar.reduction_dim.1 = load i64, ptr %reduce.9.inner.invar_address.reduction_dim.1, align 8
2024-11-23 16:27:19.225790: I external/xla/xla/service/cpu/compiler_functor.cc:104]   %4 = icmp uge i64 %reduce.9.inner.indvar.reduction_dim.1, 1
2024-11-23 16:27:19.225793: I external/xla/xla/service/cpu/compiler_functor.cc:104]   br i1 %4, label %reduce.9.inner.loop_exit.reduction_dim.1, label %reduce.9.inner.loop_body.reduction_dim.1
2024-11-23 16:27:19.225796: I external/xla/xla/service/cpu/compiler_functor.cc:104] 
2024-11-23 16:27:19.225798: I external/xla/xla/service/cpu/compiler_functor.cc:104] reduce.9.inner.loop_body.reduction_dim.1:         ; preds = %reduce.9.inner.loop_header.reduction_dim.1
2024-11-23 16:27:19.225801: I external/xla/xla/service/cpu/compiler_functor.cc:104]   %5 = load float, ptr %accumulator_0, align 4
2024-11-23 16:27:19.225804: I external/xla/xla/service/cpu/compiler_functor.cc:104]   %6 = getelementptr inbounds [16 x [1 x float]], ptr %arg0, i64 0, i64 %reduce.9.inner.indvar.reduction_dim.0, i64 0
2024-11-23 16:27:19.225807: I external/xla/xla/service/cpu/compiler_functor.cc:104]   %7 = load float, ptr %6, align 4, !invariant.load !0, !noalias !15
2024-11-23 16:27:19.225809: I external/xla/xla/service/cpu/compiler_functor.cc:104]   store float %5, ptr %arg_addr, align 4
2024-11-23 16:27:19.225812: I external/xla/xla/service/cpu/compiler_functor.cc:104]   store float %7, ptr %arg_addr6, align 4
2024-11-23 16:27:19.225815: I external/xla/xla/service/cpu/compiler_functor.cc:104]   %8 = getelementptr inbounds ptr, ptr %reduce_function_parameter_addresses, i64 0
2024-11-23 16:27:19.225818: I external/xla/xla/service/cpu/compiler_functor.cc:104]   store ptr %arg_addr, ptr %8, align 8
2024-11-23 16:27:19.225820: I external/xla/xla/service/cpu/compiler_functor.cc:104]   %9 = getelementptr inbounds ptr, ptr %reduce_function_parameter_addresses, i64 1
2024-11-23 16:27:19.225823: I external/xla/xla/service/cpu/compiler_functor.cc:104]   store ptr %arg_addr6, ptr %9, align 8
2024-11-23 16:27:19.225826: I external/xla/xla/service/cpu/compiler_functor.cc:104]   call void @reducer_function(ptr %reduce_function_return_value_addr, ptr null, ptr %reduce_function_parameter_addresses, ptr null, ptr null, ptr null)
2024-11-23 16:27:19.225829: I external/xla/xla/service/cpu/compiler_functor.cc:104]   %10 = load float, ptr %reduce_function_return_value_addr, align 4
2024-11-23 16:27:19.226116: I external/xla/xla/service/cpu/compiler_functor.cc:104]   store float %10, ptr %accumulator_0, align 4
2024-11-23 16:27:19.226129: I external/xla/xla/service/cpu/compiler_functor.cc:104]   %invar.inc5 = add nuw nsw i64 %reduce.9.inner.indvar.reduction_dim.1, 1
2024-11-23 16:27:19.226133: I external/xla/xla/service/cpu/compiler_functor.cc:104]   store i64 %invar.inc5, ptr %reduce.9.inner.invar_address.reduction_dim.1, align 8
2024-11-23 16:27:19.226136: I external/xla/xla/service/cpu/compiler_functor.cc:104]   br label %reduce.9.inner.loop_header.reduction_dim.1
2024-11-23 16:27:19.226139: I external/xla/xla/service/cpu/compiler_functor.cc:104] 
2024-11-23 16:27:19.226142: I external/xla/xla/service/cpu/compiler_functor.cc:104] reduce.9.inner.loop_exit.reduction_dim.1:         ; preds = %reduce.9.inner.loop_header.reduction_dim.1
2024-11-23 16:27:19.226145: I external/xla/xla/service/cpu/compiler_functor.cc:104]   %invar.inc = add nuw nsw i64 %reduce.9.inner.indvar.reduction_dim.0, 1
2024-11-23 16:27:19.226148: I external/xla/xla/service/cpu/compiler_functor.cc:104]   store i64 %invar.inc, ptr %reduce.9.inner.invar_address.reduction_dim.0, align 8
2024-11-23 16:27:19.226150: I external/xla/xla/service/cpu/compiler_functor.cc:104]   br label %reduce.9.inner.loop_header.reduction_dim.0
2024-11-23 16:27:19.226153: I external/xla/xla/service/cpu/compiler_functor.cc:104] 
2024-11-23 16:27:19.226156: I external/xla/xla/service/cpu/compiler_functor.cc:104] reduce.9.inner.loop_exit.reduction_dim.0:         ; preds = %reduce.9.inner.loop_header.reduction_dim.0
2024-11-23 16:27:19.226159: I external/xla/xla/service/cpu/compiler_functor.cc:104]   %11 = load float, ptr %accumulator_0, align 4
2024-11-23 16:27:19.226161: I external/xla/xla/service/cpu/compiler_functor.cc:104]   store float %11, ptr %arg2, align 4, !alias.scope !15
2024-11-23 16:27:19.226165: I external/xla/xla/service/cpu/compiler_functor.cc:104]   br label %return
2024-11-23 16:27:19.226167: I external/xla/xla/service/cpu/compiler_functor.cc:104] 
2024-11-23 16:27:19.226170: I external/xla/xla/service/cpu/compiler_functor.cc:104] return:                                           ; preds = %reduce.9.inner.loop_exit.reduction_dim.0
2024-11-23 16:27:19.226173: I external/xla/xla/service/cpu/compiler_functor.cc:104]   ret ptr null
2024-11-23 16:27:19.226176: I external/xla/xla/service/cpu/compiler_functor.cc:104] }
2024-11-23 16:27:19.226179: I external/xla/xla/service/cpu/compiler_functor.cc:104] 
2024-11-23 16:27:19.226182: I external/xla/xla/service/cpu/compiler_functor.cc:104] attributes #0 = { uwtable "frame-pointer"="all" "prefer-vector-width"="256" }
2024-11-23 16:27:19.226213: I external/xla/xla/service/cpu/compiler_functor.cc:104] attributes #1 = { alwaysinline uwtable "denormal-fp-math"="preserve-sign" "frame-pointer"="none" }
2024-11-23 16:27:19.226222: I external/xla/xla/service/cpu/compiler_functor.cc:104] 
2024-11-23 16:27:19.226225: I external/xla/xla/service/cpu/compiler_functor.cc:104] !0 = !{}
2024-11-23 16:27:19.226228: I external/xla/xla/service/cpu/compiler_functor.cc:104] !1 = !{i64 16384}
2024-11-23 16:27:19.226242: I external/xla/xla/service/cpu/compiler_functor.cc:104] !2 = !{i64 16}
2024-11-23 16:27:19.226247: I external/xla/xla/service/cpu/compiler_functor.cc:104] !3 = !{i64 4}
2024-11-23 16:27:19.226250: I external/xla/xla/service/cpu/compiler_functor.cc:104] !4 = !{i64 64}
2024-11-23 16:27:19.226252: I external/xla/xla/service/cpu/compiler_functor.cc:104] !5 = !{!6}
2024-11-23 16:27:19.226255: I external/xla/xla/service/cpu/compiler_functor.cc:104] !6 = !{!"result slice: {index:10, offset:0, size:64}", !7}
2024-11-23 16:27:19.226258: I external/xla/xla/service/cpu/compiler_functor.cc:104] !7 = !{!"XLA host kernel reduce-window AA domain"}
2024-11-23 16:27:19.226261: I external/xla/xla/service/cpu/compiler_functor.cc:104] !8 = !{!9}
2024-11-23 16:27:19.226264: I external/xla/xla/service/cpu/compiler_functor.cc:104] !9 = !{!"buffer: {index:8, offset:0, size:4}", !10}
2024-11-23 16:27:19.226289: I external/xla/xla/service/cpu/compiler_functor.cc:104] !10 = !{!"XLA global AA domain"}
2024-11-23 16:27:19.226294: I external/xla/xla/service/cpu/compiler_functor.cc:104] !11 = !{!12}
2024-11-23 16:27:19.226297: I external/xla/xla/service/cpu/compiler_functor.cc:104] !12 = !{!"buffer: {index:7, offset:0, size:4}", !10}
2024-11-23 16:27:19.226300: I external/xla/xla/service/cpu/compiler_functor.cc:104] !13 = !{!14}
2024-11-23 16:27:19.226303: I external/xla/xla/service/cpu/compiler_functor.cc:104] !14 = !{!"buffer: {index:9, offset:0, size:4}", !10}
2024-11-23 16:27:19.226306: I external/xla/xla/service/cpu/compiler_functor.cc:104] !15 = !{!16}
2024-11-23 16:27:19.226308: I external/xla/xla/service/cpu/compiler_functor.cc:104] !16 = !{!"result slice: {index:4, offset:0, size:4}", !17}
2024-11-23 16:27:19.226311: I external/xla/xla/service/cpu/compiler_functor.cc:104] !17 = !{!"XLA host kernel reduce.9 AA domain"}
2024-11-23 16:27:19.226924: I external/xla/xla/service/dump.cc:317] Dumping module_0008.SyncTensorsGraph.14.ir-no-opt.part_00.ll to /tmp/dir_name
2024-11-23 16:27:19.233685: I external/xla/xla/service/cpu/compiler_functor.cc:196] IR after optimizations
2024-11-23 16:27:19.233887: I external/xla/xla/service/dump.cc:317] Dumping module_0008.SyncTensorsGraph.14.ir-with-opt.part_00.ll to /tmp/dir_name
2024-11-23 16:27:19.238256: I external/xla/xla/service/dump.cc:317] Dumping module_0008.SyncTensorsGraph.14.o to /tmp/dir_name
2024-11-23 16:27:19.239432: I external/xla/xla/service/cpu/cpu_compiler.cc:1172] Create constant allocation for index 6 from constant literal constant.3; shape=f32[]
2024-11-23 16:27:19.239483: I external/xla/xla/service/cpu/cpu_executable.cc:178] Create CpuExecutable from a thunk sequence; module=SyncTensorsGraph.14, constants=1
2024-11-23 16:27:19.239535: I external/xla/xla/backends/cpu/runtime/thunk_executor.cc:82] Constructed ThunkExecutor with 4 nodes: #source_nodes=1 #sink_nodes=1, #erased_edges=0, is_sequential=true, small_buffers=false
2024-11-23 16:27:19.239625: I external/xla/xla/hlo/ir/hlo_schedule.cc:286] VerifySchedule()
2024-11-23 16:27:19.239635: I external/xla/xla/hlo/ir/hlo_schedule.cc:287] HloSchedule
2024-11-23 16:27:19.239639: I external/xla/xla/hlo/ir/hlo_schedule.cc:287] computation region_0.5:
2024-11-23 16:27:19.239642: I external/xla/xla/hlo/ir/hlo_schedule.cc:287]   Arg_0.6
2024-11-23 16:27:19.239645: I external/xla/xla/hlo/ir/hlo_schedule.cc:287]   Arg_1.7
2024-11-23 16:27:19.239648: I external/xla/xla/hlo/ir/hlo_schedule.cc:287]   add.8
2024-11-23 16:27:19.239650: I external/xla/xla/hlo/ir/hlo_schedule.cc:287] computation main.12:
2024-11-23 16:27:19.239653: I external/xla/xla/hlo/ir/hlo_schedule.cc:287]   Arg_0.1
2024-11-23 16:27:19.239656: I external/xla/xla/hlo/ir/hlo_schedule.cc:287]   Arg_1.2
2024-11-23 16:27:19.239659: I external/xla/xla/hlo/ir/hlo_schedule.cc:287]   dot.4
2024-11-23 16:27:19.239662: I external/xla/xla/hlo/ir/hlo_schedule.cc:287]   constant.3
2024-11-23 16:27:19.239664: I external/xla/xla/hlo/ir/hlo_schedule.cc:287]   reduce-window
2024-11-23 16:27:19.239667: I external/xla/xla/hlo/ir/hlo_schedule.cc:287]   reduce.9
2024-11-23 16:27:19.239670: I external/xla/xla/hlo/ir/hlo_schedule.cc:287]   bitcast
2024-11-23 16:27:19.239673: I external/xla/xla/hlo/ir/hlo_schedule.cc:287]   copy
2024-11-23 16:27:19.239676: I external/xla/xla/hlo/ir/hlo_schedule.cc:287]   tuple
2024-11-23 16:27:19.239752: I external/xla/xla/service/cpu/cpu_compiler.cc:1704] Compilation finished
2024-11-23 16:27:19.239764: I external/xla/xla/service/cpu/cpu_compiler.cc:1689] Compiling [SyncTensorsGraph.14] for CPU using JIT time: 44.1 ms (cumulative: 149 ms, max: 70.1 ms, #called: 3)
2024-11-23 16:27:19.239773: I external/xla/xla/service/buffer_assignment.cc:485] Trying to find unique slice for tuple [{}]
2024-11-23 16:27:19.239779: I external/xla/xla/service/buffer_assignment.cc:490] Examining value <10 tuple{} @0>
2024-11-23 16:27:19.239782: I external/xla/xla/service/buffer_assignment.cc:492] Has allocation
2024-11-23 16:27:19.239825: I external/xla/xla/service/buffer_assignment.cc:485] Trying to find unique slice for dot.4 [{}]
2024-11-23 16:27:19.239836: I external/xla/xla/service/buffer_assignment.cc:490] Examining value <5 dot.4 @0>
2024-11-23 16:27:19.239839: I external/xla/xla/service/buffer_assignment.cc:492] Has allocation
2024-11-23 16:27:19.239842: I external/xla/xla/service/buffer_assignment.cc:485] Trying to find unique slice for reduce.9 [{}]
2024-11-23 16:27:19.239846: I external/xla/xla/service/buffer_assignment.cc:490] Examining value <8 reduce.9 @0>
2024-11-23 16:27:19.239848: I external/xla/xla/service/buffer_assignment.cc:492] Has allocation
2024-11-23 16:27:19.239851: I external/xla/xla/service/buffer_assignment.cc:485] Trying to find unique slice for copy [{}]
2024-11-23 16:27:19.239854: I external/xla/xla/service/buffer_assignment.cc:490] Examining value <9 copy @0>
2024-11-23 16:27:19.239857: I external/xla/xla/service/buffer_assignment.cc:492] Has allocation
2024-11-23 16:27:19.239871: I external/xla/xla/hlo/ir/hlo_computation.cc:1492] Unreachable roots:
2024-11-23 16:27:19.239875: I external/xla/xla/hlo/ir/hlo_instruction.cc:4582] HloInstruction::Accept(%tuple)
2024-11-23 16:27:19.239883: I external/xla/xla/hlo/ir/hlo_instruction.cc:4516] Visiting HLO %Arg_1.2
2024-11-23 16:27:19.239888: I external/xla/xla/hlo/ir/hlo_instruction.cc:4516] Visiting HLO %Arg_0.1
2024-11-23 16:27:19.239892: I external/xla/xla/hlo/ir/hlo_instruction.cc:4516] Visiting HLO %dot.4
2024-11-23 16:27:19.239898: I external/xla/xla/hlo/ir/hlo_instruction.cc:4516] Visiting HLO %constant.3
2024-11-23 16:27:19.239902: I external/xla/xla/hlo/ir/hlo_instruction.cc:4516] Visiting HLO %reduce-window
2024-11-23 16:27:19.239906: I external/xla/xla/hlo/ir/hlo_computation.cc:1492] Unreachable roots:
2024-11-23 16:27:19.239909: I external/xla/xla/hlo/ir/hlo_instruction.cc:4582] HloInstruction::Accept(%add.8)
2024-11-23 16:27:19.239912: I external/xla/xla/hlo/ir/hlo_instruction.cc:4516] Visiting HLO %Arg_0.6
2024-11-23 16:27:19.239915: I external/xla/xla/hlo/ir/hlo_instruction.cc:4516] Visiting HLO %Arg_1.7
2024-11-23 16:27:19.239919: I external/xla/xla/hlo/ir/hlo_instruction.cc:4516] Visiting HLO %add.8
2024-11-23 16:27:19.239925: I external/xla/xla/hlo/ir/hlo_instruction.cc:4507] Not visiting HLO (id = 3) as it was already visited.
2024-11-23 16:27:19.239929: I external/xla/xla/hlo/ir/hlo_instruction.cc:4516] Visiting HLO %reduce.9
2024-11-23 16:27:19.239932: I external/xla/xla/hlo/ir/hlo_computation.cc:1492] Unreachable roots:
2024-11-23 16:27:19.239935: I external/xla/xla/hlo/ir/hlo_instruction.cc:4582] HloInstruction::Accept(%add.8)
2024-11-23 16:27:19.239938: I external/xla/xla/hlo/ir/hlo_instruction.cc:4516] Visiting HLO %Arg_0.6
2024-11-23 16:27:19.239942: I external/xla/xla/hlo/ir/hlo_instruction.cc:4516] Visiting HLO %Arg_1.7
2024-11-23 16:27:19.239947: I external/xla/xla/hlo/ir/hlo_instruction.cc:4516] Visiting HLO %add.8
2024-11-23 16:27:19.239954: I external/xla/xla/hlo/ir/hlo_instruction.cc:4516] Visiting HLO %bitcast
2024-11-23 16:27:19.239959: I external/xla/xla/hlo/ir/hlo_instruction.cc:4516] Visiting HLO %copy
2024-11-23 16:27:19.239964: I external/xla/xla/hlo/ir/hlo_instruction.cc:4516] Visiting HLO %tuple
2024-11-23 16:27:19.240306: I torch_xla/csrc/runtime/pjrt_computation_client.cc:635] memory usage detail = CompiledMemoryStats(generated_code_size_in_bytes=1464, argument_size_in_bytes=1064960, output_size_in_bytes=16416, alias_size_in_bytes=0, temp_size_in_bytes=64, host_generated_code_size_in_bytes=0, host_argument_size_in_bytes=0, host_output_size_in_bytes=0, host_alias_size_in_bytes=0, host_temp_size_in_bytes=0)
2024-11-23 16:27:19.240363: I external/xla/xla/hlo/ir/hlo_schedule.cc:286] VerifySchedule()
2024-11-23 16:27:19.240372: I external/xla/xla/hlo/ir/hlo_schedule.cc:287] HloSchedule
2024-11-23 16:27:19.240375: I external/xla/xla/hlo/ir/hlo_schedule.cc:287] computation region_0.5:
2024-11-23 16:27:19.240378: I external/xla/xla/hlo/ir/hlo_schedule.cc:287]   Arg_0.6
2024-11-23 16:27:19.240381: I external/xla/xla/hlo/ir/hlo_schedule.cc:287]   Arg_1.7
2024-11-23 16:27:19.240432: I external/xla/xla/hlo/ir/hlo_schedule.cc:287]   add.8
2024-11-23 16:27:19.240442: I external/xla/xla/hlo/ir/hlo_schedule.cc:287] computation main.12:
2024-11-23 16:27:19.240445: I external/xla/xla/hlo/ir/hlo_schedule.cc:287]   Arg_0.1
2024-11-23 16:27:19.240447: I external/xla/xla/hlo/ir/hlo_schedule.cc:287]   Arg_1.2
2024-11-23 16:27:19.240450: I external/xla/xla/hlo/ir/hlo_schedule.cc:287]   dot.4
2024-11-23 16:27:19.240453: I external/xla/xla/hlo/ir/hlo_schedule.cc:287]   constant.3
2024-11-23 16:27:19.240456: I external/xla/xla/hlo/ir/hlo_schedule.cc:287]   reduce-window
2024-11-23 16:27:19.240459: I external/xla/xla/hlo/ir/hlo_schedule.cc:287]   reduce.9
2024-11-23 16:27:19.240461: I external/xla/xla/hlo/ir/hlo_schedule.cc:287]   bitcast
2024-11-23 16:27:19.240464: I external/xla/xla/hlo/ir/hlo_schedule.cc:287]   copy
2024-11-23 16:27:19.240467: I external/xla/xla/hlo/ir/hlo_schedule.cc:287]   tuple

Post Compilation Analysis: ================================================================================
Post Compilation Analysis: Graph input size: 0.000992 GB
Post Compilation Analysis: Graph output size: 0.000015 GB
Post Compilation Analysis: Aliased Input size: 0.000000 GB
Post Compilation Analysis: Intermediate tensor size: 0.000000 GB
Post Compilation Analysis: Compiled program size: 0.000001 GB
Post Compilation Analysis: --------------------------------------------------------------------------------
Post Compilation Analysis: ================================================================================
2024-11-23 16:27:19.240805: I torch_xla/csrc/xla_graph_executor.cpp:1433] Compiling IR graph hash 459283de0f2b008ade059ab45d9f54cd on device CPU:0 done!
2024-11-23 16:27:19.240817: I torch_xla/csrc/xla_graph_executor.cpp:1436] Compiled program shape (p0: f32[512,8], p1: f32[512,512]) -> (f32[512,8], f32[], f32[1])

2024-11-23 16:27:19.240830: I torch_xla/csrc/xla_graph_executor.cpp:1438] Graph hash 459283de0f2b008ade059ab45d9f54cd is computation hash 26ad2d9f6260dd7bba3ac9da3bd93d77
2024-11-23 16:27:19.240844: I torch_xla/csrc/xla_graph_executor.cpp:1536] TensorsGraphSize=5

Execution Analysis: ================================================================================
Execution Analysis: Execution Cause
Execution Analysis:   user mark_step
Execution Analysis: Graph Info: 
Execution Analysis:   Graph Hash: 459283de0f2b008ade059ab45d9f54cd
Execution Analysis:   Number of Graph Inputs: 2
Execution Analysis:   Number of Graph Outputs: 3
Execution Analysis: Python Frame Triggered Execution: 
Execution Analysis:   mark_step (/usr/local/lib/python3.10/dist-packages/torch_xla/core/xla_model.py:1046)
Execution Analysis:   dummy_step (/root/xla/lzy.py:26)
Execution Analysis:   measure_time (/root/xla/lzy.py:39)
Execution Analysis:   <module> (/root/xla/lzy.py:45)
Execution Analysis: --------------------------------------------------------------------------------
Execution Analysis: ================================================================================
2024-11-23 16:27:19.240876: I torch_xla/csrc/xla_graph_executor.cpp:722] waiting barrier for device CPU:0 start
2024-11-23 16:27:19.240894: I torch_xla/csrc/xla_graph_executor.cpp:725] waiting barrier for device CPU:0 done
2024-11-23 16:27:19.240920: I torch_xla/csrc/xla_graph_executor.cpp:1129] Executing IR graph hash 459283de0f2b008ade059ab45d9f54cd on device CPU:0 ...
2024-11-23 16:27:19.240928: I torch_xla/csrc/runtime/pjrt_computation_client.cc:713] Executing PjRt computation on CPU:0
2024-11-23 16:27:19.240933: I torch_xla/csrc/runtime/pjrt_computation_client.cc:739] ExecuteComputation acquiring PJRT device lock for CPU:0
2024-11-23 16:27:19.240938: I torch_xla/csrc/runtime/operation_manager.cc:55] Incremented operations for CPU:0 to 2
2024-11-23 16:27:19.240941: I torch_xla/csrc/runtime/pjrt_computation_client.cc:741] ExecuteComputation acquiring PJRT device lock for CPU:0 Done
2024-11-23 16:27:19.240945: I external/xla/xla/pjrt/cpu/cpu_client.cc:2020] ExecuteShard executes computation SyncTensorsGraph.14 on assigned replica/partition on device TFRT_CPU_0
2024-11-23 16:27:19.241049: I torch_xla/csrc/runtime/pjrt_computation_client.cc:769] Returning 3 results
2024-11-23 16:27:19.241061: I torch_xla/csrc/xla_graph_executor.cpp:1140] Executing IR graph hash 459283de0f2b008ade059ab45d9f54cd on device CPU:0 done!
IR {
  %0 = f32[3,8]{1,0} xla::device_data(), location=<module>@lzy.py:8, xla_shape=f32[3,8]{1,0}
  %1 = f32[3,3]{1,0} xla::device_data(), location=<module>@lzy.py:7, xla_shape=f32[3,3]{1,0}
  %2 = f32[3,8]{1,0} aten::einsum(%1, %0), location=einsum@functional.py:402, xla_shape=f32[3,8]{1,0}, ROOT=0
}

IR {
  %0 = f32[] prim::Constant(), location=<module>@lzy.py:13, xla_shape=f32[]
  %1 = f32[3,8]{1,0} xla::device_data(), location=<module>@lzy.py:8, xla_shape=f32[3,8]{1,0}
  %2 = f32[3,3]{1,0} xla::device_data(), location=<module>@lzy.py:7, xla_shape=f32[3,3]{1,0}
  %3 = f32[3,8]{1,0} aten::einsum(%2, %1), location=einsum@functional.py:402, xla_shape=f32[3,8]{1,0}
  %4 = f32[3,8]{1,0} aten::add(%3, %1, %0), scope=aten::add.1, location=<module>@lzy.py:13, xla_shape=f32[3,8]{1,0}, ROOT=0
}

IR {
  %0 = f32[3,8]{1,0} xla::device_data(), location=<module>@lzy.py:17, xla_shape=f32[3,8]{1,0}, ROOT=0
}

2024-11-23 16:27:19.241687: I torch_xla/csrc/xla_graph_executor.cpp:488] XLAGraphExecutor::WaitDeviceOps completed
2024-11-23 16:27:19.241713: I torch_xla/csrc/runtime/pjrt_computation_client.cc:970] Waiting for 
2024-11-23 16:27:19.241717: I torch_xla/csrc/runtime/operation_manager.cc:38] Blocking new operations on CPU:0
2024-11-23 16:27:19.241721: I torch_xla/csrc/runtime/operation_manager.cc:42] Waiting for device execution for CPU:0 to finish
2024-11-23 16:27:19.241725: I torch_xla/csrc/runtime/operation_manager.cc:75] Waiting for 2 operations on CPU:0
2024-11-23 16:27:19.265713: I external/xla/xla/backends/cpu/runtime/kernel_thunk.cc:163] Launch host kernel reduce-window with 2 arguments buffers and 1 results buffers: #threads=ThreadDim{1, 1, 1}
2024-11-23 16:27:19.265761: I external/xla/xla/backends/cpu/runtime/kernel_thunk.cc:85]   arg #0: {index:1, offset:0, size:16384} (0x714718001440)
2024-11-23 16:27:19.265766: I external/xla/xla/backends/cpu/runtime/kernel_thunk.cc:85]   arg #1: {index:7, offset:0, size:4} (0x60b0a7ebdfc0)
2024-11-23 16:27:19.265769: I external/xla/xla/backends/cpu/runtime/kernel_thunk.cc:90]   res #0: {index:12, offset:0, size:64} (0x7147180054b0)
2024-11-23 16:27:19.265773: I external/xla/xla/service/cpu/cpu_executable.cc:93] Find host kernel with a name reduce-window
2024-11-23 16:27:19.265830: I external/xla/xla/backends/cpu/runtime/kernel_thunk.cc:163] Launch host kernel reduce.10 with 2 arguments buffers and 1 results buffers: #threads=ThreadDim{1, 1, 1}
2024-11-23 16:27:19.265837: I external/xla/xla/backends/cpu/runtime/kernel_thunk.cc:85]   arg #0: {index:12, offset:0, size:64} (0x7147180054b0)
2024-11-23 16:27:19.265841: I external/xla/xla/backends/cpu/runtime/kernel_thunk.cc:85]   arg #1: {index:7, offset:0, size:4} (0x60b0a7ebdfc0)
2024-11-23 16:27:19.265844: I external/xla/xla/backends/cpu/runtime/kernel_thunk.cc:90]   res #0: {index:5, offset:0, size:4} (0x714718005470)
2024-11-23 16:27:19.265847: I external/xla/xla/service/cpu/cpu_executable.cc:93] Find host kernel with a name reduce.10
2024-11-23 16:27:19.265854: I external/xla/xla/backends/cpu/runtime/kernel_thunk.cc:163] Launch host kernel fusion with 2 arguments buffers and 1 results buffers: #threads=ThreadDim{1, 1, 1}
2024-11-23 16:27:19.265857: I external/xla/xla/backends/cpu/runtime/kernel_thunk.cc:85]   arg #0: {index:8, offset:0, size:4} (0x60b0a7ef78c0)
2024-11-23 16:27:19.265860: I external/xla/xla/backends/cpu/runtime/kernel_thunk.cc:85]   arg #1: {index:5, offset:0, size:4} (0x714718005470)
2024-11-23 16:27:19.265863: I external/xla/xla/backends/cpu/runtime/kernel_thunk.cc:90]   res #0: {index:4, offset:0, size:8} (0x714718005450)
2024-11-23 16:27:19.265866: I external/xla/xla/service/cpu/cpu_executable.cc:93] Find host kernel with a name fusion
2024-11-23 16:27:19.265879: I external/xla/xla/backends/cpu/runtime/copy_thunk.cc:155] Copy buffer: use_transpose=false
2024-11-23 16:27:19.265916: I external/xla/xla/backends/cpu/runtime/copy_thunk.cc:157]   src: f32[1]{0} in slice {index:5, offset:0, size:4} (0x714718005470)
2024-11-23 16:27:19.265923: I external/xla/xla/backends/cpu/runtime/copy_thunk.cc:160]   dst: f32[1]{0} in slice {index:6, offset:0, size:4} (0x714718005490)
2024-11-23 16:27:19.265956: I torch_xla/csrc/runtime/pjrt_computation_client.cc:754] ExecuteComputation returned_future->OnReady finished
2024-11-23 16:27:19.265963: I torch_xla/csrc/runtime/operation_manager.cc:60] Decremented operations for CPU:0 to 1
2024-11-23 16:27:19.265998: I external/xla/xla/backends/cpu/runtime/dot_thunk.cc:213] Dot operation: lhs_batch_dims=[], rhs_batch_dims=[], lhs_contract_dims=[1], rhs_contract_dims=[0]
2024-11-23 16:27:19.266003: I external/xla/xla/backends/cpu/runtime/dot_thunk.cc:221]   lhs: f32[512,512]{1,0} in slice {index:0, offset:0, size:1048576} (0x60b0a83e81e0)
2024-11-23 16:27:19.266007: I external/xla/xla/backends/cpu/runtime/dot_thunk.cc:224]   rhs: f32[512,8]{1,0} in slice {index:2, offset:0, size:16384} (0x60b0a801b120)
2024-11-23 16:27:19.266011: I external/xla/xla/backends/cpu/runtime/dot_thunk.cc:227]   out: f32[512,8]{1,0} in slice {index:1, offset:0, size:16384} (0x714718001440)
2024-11-23 16:27:19.266015: I external/xla/xla/backends/cpu/runtime/dot_thunk.cc:231]   matmul shape: batch_size=1, lhs=f32[512,512]{1,0}, rhs=f32[512,8]{1,0}, out=f32[512,8]{1,0}
2024-11-23 16:27:19.266019: I external/xla/xla/backends/cpu/runtime/dot_thunk.cc:240]   matmul dims: m=512, k=512, n=8, lhs_column_major=false, lhs_canonical=true, rhs_column_major=false, rhs_canonical=true
2024-11-23 16:27:19.266595: I external/xla/xla/backends/cpu/runtime/kernel_thunk.cc:163] Launch host kernel reduce-window with 2 arguments buffers and 1 results buffers: #threads=ThreadDim{1, 1, 1}
2024-11-23 16:27:19.266655: I external/xla/xla/backends/cpu/runtime/kernel_thunk.cc:85]   arg #0: {index:1, offset:0, size:16384} (0x714718001440)
2024-11-23 16:27:19.266659: I external/xla/xla/backends/cpu/runtime/kernel_thunk.cc:85]   arg #1: {index:6, offset:0, size:4} (0x60b0a7f49180)
2024-11-23 16:27:19.266663: I external/xla/xla/backends/cpu/runtime/kernel_thunk.cc:90]   res #0: {index:10, offset:0, size:64} (0x7146fc0022f0)
2024-11-23 16:27:19.266667: I external/xla/xla/service/cpu/cpu_executable.cc:93] Find host kernel with a name reduce-window
2024-11-23 16:27:19.266691: I external/xla/xla/backends/cpu/runtime/kernel_thunk.cc:163] Launch host kernel reduce.9 with 2 arguments buffers and 1 results buffers: #threads=ThreadDim{1, 1, 1}
2024-11-23 16:27:19.266695: I external/xla/xla/backends/cpu/runtime/kernel_thunk.cc:85]   arg #0: {index:10, offset:0, size:64} (0x7146fc0022f0)
2024-11-23 16:27:19.266698: I external/xla/xla/backends/cpu/runtime/kernel_thunk.cc:85]   arg #1: {index:6, offset:0, size:4} (0x60b0a7f49180)
2024-11-23 16:27:19.266701: I external/xla/xla/backends/cpu/runtime/kernel_thunk.cc:90]   res #0: {index:4, offset:0, size:4} (0x7146fc0029f0)
2024-11-23 16:27:19.266704: I external/xla/xla/service/cpu/cpu_executable.cc:93] Find host kernel with a name reduce.9
2024-11-23 16:27:19.266710: I external/xla/xla/backends/cpu/runtime/copy_thunk.cc:155] Copy buffer: use_transpose=false
2024-11-23 16:27:19.266717: I external/xla/xla/backends/cpu/runtime/copy_thunk.cc:157]   src: f32[1]{0} in slice {index:4, offset:0, size:4} (0x7146fc0029f0)
2024-11-23 16:27:19.266721: I external/xla/xla/backends/cpu/runtime/copy_thunk.cc:160]   dst: f32[1]{0} in slice {index:5, offset:0, size:4} (0x7146fc001c00)
2024-11-23 16:27:19.266732: I torch_xla/csrc/runtime/pjrt_computation_client.cc:754] ExecuteComputation returned_future->OnReady finished
2024-11-23 16:27:19.266737: I torch_xla/csrc/runtime/operation_manager.cc:60] Decremented operations for CPU:0 to 0
2024-11-23 16:27:19.266751: I torch_xla/csrc/runtime/operation_manager.cc:64] All operations complete for CPU:0
2024-11-23 16:27:19.266794: I torch_xla/csrc/runtime/operation_manager.cc:79] Done waiting for CPU:0
2024-11-23 16:27:19.266827: I torch_xla/csrc/runtime/operation_manager.cc:45] Finished operations on device CPU:0
2024-11-23 16:27:19.777075: I external/xla/xla/pjrt/cpu/cpu_client.cc:475] TfrtCpuClient destroyed.
